{"backend": "tensorflow", "config": {"layers": [{"name": "input_1", "config": {"batch_input_shape": [null, null, null, 3], "name": "input_1", "dtype": "float32", "sparse": false}, "class_name": "InputLayer", "inbound_nodes": []}, {"name": "zero_padding2d_1", "config": {"padding": [[3, 3], [3, 3]], "trainable": false, "name": "zero_padding2d_1", "data_format": "channels_last"}, "class_name": "ZeroPadding2D", "inbound_nodes": [[["input_1", 0, 0, {}]]]}, {"name": "conv1", "config": {"activation": "linear", "trainable": false, "activity_regularizer": null, "strides": [2, 2], "kernel_initializer": {"config": {"scale": 1.0, "seed": null, "mode": "fan_avg", "distribution": "uniform"}, "class_name": "VarianceScaling"}, "data_format": "channels_last", "kernel_constraint": null, "dilation_rate": [1, 1], "kernel_regularizer": null, "bias_constraint": null, "padding": "valid", "filters": 64, "use_bias": true, "name": "conv1", "bias_regularizer": null, "kernel_size": [7, 7], "bias_initializer": {"config": {}, "class_name": "Zeros"}}, "class_name": "Conv2D", "inbound_nodes": [[["zero_padding2d_1", 0, 0, {}]]]}, {"name": "bn_conv1", "config": {"trainable": false, "moving_mean_initializer": {"config": {}, "class_name": "Zeros"}, "beta_regularizer": null, "center": true, "beta_constraint": null, "scale": true, "momentum": 0.99, "epsilon": 0.001, "name": "bn_conv1", "axis": 3, "gamma_regularizer": null, "gamma_constraint": null, "moving_variance_initializer": {"config": {}, "class_name": "Ones"}, "gamma_initializer": {"config": {}, "class_name": "Ones"}, "beta_initializer": {"config": {}, "class_name": "Zeros"}}, "class_name": "BatchNormalization", "inbound_nodes": [[["conv1", 0, 0, {}]]]}, {"name": "activation_1", "config": {"activation": "relu", "trainable": false, "name": "activation_1"}, "class_name": "Activation", "inbound_nodes": [[["bn_conv1", 0, 0, {}]]]}, {"name": "max_pooling2d_1", "config": {"padding": "valid", "trainable": false, "strides": [2, 2], "name": "max_pooling2d_1", "data_format": "channels_last", "pool_size": [3, 3]}, "class_name": "MaxPooling2D", "inbound_nodes": [[["activation_1", 0, 0, {}]]]}, {"name": "res2a_branch2a", "config": {"activation": "linear", "trainable": false, "activity_regularizer": null, "strides": [1, 1], "kernel_initializer": {"config": {"scale": 1.0, "seed": null, "mode": "fan_avg", "distribution": "uniform"}, "class_name": "VarianceScaling"}, "data_format": "channels_last", "kernel_constraint": null, "dilation_rate": [1, 1], "kernel_regularizer": null, "bias_constraint": null, "padding": "valid", "filters": 64, "use_bias": true, "name": "res2a_branch2a", "bias_regularizer": null, "kernel_size": [1, 1], "bias_initializer": {"config": {}, "class_name": "Zeros"}}, "class_name": "Conv2D", "inbound_nodes": [[["max_pooling2d_1", 0, 0, {}]]]}, {"name": "bn2a_branch2a", "config": {"trainable": false, "moving_mean_initializer": {"config": {}, "class_name": "Zeros"}, "beta_regularizer": null, "center": true, "beta_constraint": null, "scale": true, "momentum": 0.99, "epsilon": 0.001, "name": "bn2a_branch2a", "axis": 3, "gamma_regularizer": null, "gamma_constraint": null, "moving_variance_initializer": {"config": {}, "class_name": "Ones"}, "gamma_initializer": {"config": {}, "class_name": "Ones"}, "beta_initializer": {"config": {}, "class_name": "Zeros"}}, "class_name": "BatchNormalization", "inbound_nodes": [[["res2a_branch2a", 0, 0, {}]]]}, {"name": "activation_2", "config": {"activation": "relu", "trainable": false, "name": "activation_2"}, "class_name": "Activation", "inbound_nodes": [[["bn2a_branch2a", 0, 0, {}]]]}, {"name": "res2a_branch2b", "config": {"activation": "linear", "trainable": false, "activity_regularizer": null, "strides": [1, 1], "kernel_initializer": {"config": {"scale": 1.0, "seed": null, "mode": "fan_avg", "distribution": "uniform"}, "class_name": "VarianceScaling"}, "data_format": "channels_last", "kernel_constraint": null, "dilation_rate": [1, 1], "kernel_regularizer": null, "bias_constraint": null, "padding": "same", "filters": 64, "use_bias": true, "name": "res2a_branch2b", "bias_regularizer": null, "kernel_size": [3, 3], "bias_initializer": {"config": {}, "class_name": "Zeros"}}, "class_name": "Conv2D", "inbound_nodes": [[["activation_2", 0, 0, {}]]]}, {"name": "bn2a_branch2b", "config": {"trainable": false, "moving_mean_initializer": {"config": {}, "class_name": "Zeros"}, "beta_regularizer": null, "center": true, "beta_constraint": null, "scale": true, "momentum": 0.99, "epsilon": 0.001, "name": "bn2a_branch2b", "axis": 3, "gamma_regularizer": null, "gamma_constraint": null, "moving_variance_initializer": {"config": {}, "class_name": "Ones"}, "gamma_initializer": {"config": {}, "class_name": "Ones"}, "beta_initializer": {"config": {}, "class_name": "Zeros"}}, "class_name": "BatchNormalization", "inbound_nodes": [[["res2a_branch2b", 0, 0, {}]]]}, {"name": "activation_3", "config": {"activation": "relu", "trainable": false, "name": "activation_3"}, "class_name": "Activation", "inbound_nodes": [[["bn2a_branch2b", 0, 0, {}]]]}, {"name": "res2a_branch2c", "config": {"activation": "linear", "trainable": false, "activity_regularizer": null, "strides": [1, 1], "kernel_initializer": {"config": {"scale": 1.0, "seed": null, "mode": "fan_avg", "distribution": "uniform"}, "class_name": "VarianceScaling"}, "data_format": "channels_last", "kernel_constraint": null, "dilation_rate": [1, 1], "kernel_regularizer": null, "bias_constraint": null, "padding": "valid", "filters": 256, "use_bias": true, "name": "res2a_branch2c", "bias_regularizer": null, "kernel_size": [1, 1], "bias_initializer": {"config": {}, "class_name": "Zeros"}}, "class_name": "Conv2D", "inbound_nodes": [[["activation_3", 0, 0, {}]]]}, {"name": "res2a_branch1", "config": {"activation": "linear", "trainable": false, "activity_regularizer": null, "strides": [1, 1], "kernel_initializer": {"config": {"scale": 1.0, "seed": null, "mode": "fan_avg", "distribution": "uniform"}, "class_name": "VarianceScaling"}, "data_format": "channels_last", "kernel_constraint": null, "dilation_rate": [1, 1], "kernel_regularizer": null, "bias_constraint": null, "padding": "valid", "filters": 256, "use_bias": true, "name": "res2a_branch1", "bias_regularizer": null, "kernel_size": [1, 1], "bias_initializer": {"config": {}, "class_name": "Zeros"}}, "class_name": "Conv2D", "inbound_nodes": [[["max_pooling2d_1", 0, 0, {}]]]}, {"name": "bn2a_branch2c", "config": {"trainable": false, "moving_mean_initializer": {"config": {}, "class_name": "Zeros"}, "beta_regularizer": null, "center": true, "beta_constraint": null, "scale": true, "momentum": 0.99, "epsilon": 0.001, "name": "bn2a_branch2c", "axis": 3, "gamma_regularizer": null, "gamma_constraint": null, "moving_variance_initializer": {"config": {}, "class_name": "Ones"}, "gamma_initializer": {"config": {}, "class_name": "Ones"}, "beta_initializer": {"config": {}, "class_name": "Zeros"}}, "class_name": "BatchNormalization", "inbound_nodes": [[["res2a_branch2c", 0, 0, {}]]]}, {"name": "bn2a_branch1", "config": {"trainable": false, "moving_mean_initializer": {"config": {}, "class_name": "Zeros"}, "beta_regularizer": null, "center": true, "beta_constraint": null, "scale": true, "momentum": 0.99, "epsilon": 0.001, "name": "bn2a_branch1", "axis": 3, "gamma_regularizer": null, "gamma_constraint": null, "moving_variance_initializer": {"config": {}, "class_name": "Ones"}, "gamma_initializer": {"config": {}, "class_name": "Ones"}, "beta_initializer": {"config": {}, "class_name": "Zeros"}}, "class_name": "BatchNormalization", "inbound_nodes": [[["res2a_branch1", 0, 0, {}]]]}, {"name": "add_1", "config": {"trainable": false, "name": "add_1"}, "class_name": "Add", "inbound_nodes": [[["bn2a_branch2c", 0, 0, {}], ["bn2a_branch1", 0, 0, {}]]]}, {"name": "activation_4", "config": {"activation": "relu", "trainable": false, "name": "activation_4"}, "class_name": "Activation", "inbound_nodes": [[["add_1", 0, 0, {}]]]}, {"name": "res2b_branch2a", "config": {"activation": "linear", "trainable": false, "activity_regularizer": null, "strides": [1, 1], "kernel_initializer": {"config": {"scale": 1.0, "seed": null, "mode": "fan_avg", "distribution": "uniform"}, "class_name": "VarianceScaling"}, "data_format": "channels_last", "kernel_constraint": null, "dilation_rate": [1, 1], "kernel_regularizer": null, "bias_constraint": null, "padding": "valid", "filters": 64, "use_bias": true, "name": "res2b_branch2a", "bias_regularizer": null, "kernel_size": [1, 1], "bias_initializer": {"config": {}, "class_name": "Zeros"}}, "class_name": "Conv2D", "inbound_nodes": [[["activation_4", 0, 0, {}]]]}, {"name": "bn2b_branch2a", "config": {"trainable": false, "moving_mean_initializer": {"config": {}, "class_name": "Zeros"}, "beta_regularizer": null, "center": true, "beta_constraint": null, "scale": true, "momentum": 0.99, "epsilon": 0.001, "name": "bn2b_branch2a", "axis": 3, "gamma_regularizer": null, "gamma_constraint": null, "moving_variance_initializer": {"config": {}, "class_name": "Ones"}, "gamma_initializer": {"config": {}, "class_name": "Ones"}, "beta_initializer": {"config": {}, "class_name": "Zeros"}}, "class_name": "BatchNormalization", "inbound_nodes": [[["res2b_branch2a", 0, 0, {}]]]}, {"name": "activation_5", "config": {"activation": "relu", "trainable": false, "name": "activation_5"}, "class_name": "Activation", "inbound_nodes": [[["bn2b_branch2a", 0, 0, {}]]]}, {"name": "res2b_branch2b", "config": {"activation": "linear", "trainable": false, "activity_regularizer": null, "strides": [1, 1], "kernel_initializer": {"config": {"scale": 1.0, "seed": null, "mode": "fan_avg", "distribution": "uniform"}, "class_name": "VarianceScaling"}, "data_format": "channels_last", "kernel_constraint": null, "dilation_rate": [1, 1], "kernel_regularizer": null, "bias_constraint": null, "padding": "same", "filters": 64, "use_bias": true, "name": "res2b_branch2b", "bias_regularizer": null, "kernel_size": [3, 3], "bias_initializer": {"config": {}, "class_name": "Zeros"}}, "class_name": "Conv2D", "inbound_nodes": [[["activation_5", 0, 0, {}]]]}, {"name": "bn2b_branch2b", "config": {"trainable": false, "moving_mean_initializer": {"config": {}, "class_name": "Zeros"}, "beta_regularizer": null, "center": true, "beta_constraint": null, "scale": true, "momentum": 0.99, "epsilon": 0.001, "name": "bn2b_branch2b", "axis": 3, "gamma_regularizer": null, "gamma_constraint": null, "moving_variance_initializer": {"config": {}, "class_name": "Ones"}, "gamma_initializer": {"config": {}, "class_name": "Ones"}, "beta_initializer": {"config": {}, "class_name": "Zeros"}}, "class_name": "BatchNormalization", "inbound_nodes": [[["res2b_branch2b", 0, 0, {}]]]}, {"name": "activation_6", "config": {"activation": "relu", "trainable": false, "name": "activation_6"}, "class_name": "Activation", "inbound_nodes": [[["bn2b_branch2b", 0, 0, {}]]]}, {"name": "res2b_branch2c", "config": {"activation": "linear", "trainable": false, "activity_regularizer": null, "strides": [1, 1], "kernel_initializer": {"config": {"scale": 1.0, "seed": null, "mode": "fan_avg", "distribution": "uniform"}, "class_name": "VarianceScaling"}, "data_format": "channels_last", "kernel_constraint": null, "dilation_rate": [1, 1], "kernel_regularizer": null, "bias_constraint": null, "padding": "valid", "filters": 256, "use_bias": true, "name": "res2b_branch2c", "bias_regularizer": null, "kernel_size": [1, 1], "bias_initializer": {"config": {}, "class_name": "Zeros"}}, "class_name": "Conv2D", "inbound_nodes": [[["activation_6", 0, 0, {}]]]}, {"name": "bn2b_branch2c", "config": {"trainable": false, "moving_mean_initializer": {"config": {}, "class_name": "Zeros"}, "beta_regularizer": null, "center": true, "beta_constraint": null, "scale": true, "momentum": 0.99, "epsilon": 0.001, "name": "bn2b_branch2c", "axis": 3, "gamma_regularizer": null, "gamma_constraint": null, "moving_variance_initializer": {"config": {}, "class_name": "Ones"}, "gamma_initializer": {"config": {}, "class_name": "Ones"}, "beta_initializer": {"config": {}, "class_name": "Zeros"}}, "class_name": "BatchNormalization", "inbound_nodes": [[["res2b_branch2c", 0, 0, {}]]]}, {"name": "add_2", "config": {"trainable": false, "name": "add_2"}, "class_name": "Add", "inbound_nodes": [[["bn2b_branch2c", 0, 0, {}], ["activation_4", 0, 0, {}]]]}, {"name": "activation_7", "config": {"activation": "relu", "trainable": false, "name": "activation_7"}, "class_name": "Activation", "inbound_nodes": [[["add_2", 0, 0, {}]]]}, {"name": "res2c_branch2a", "config": {"activation": "linear", "trainable": false, "activity_regularizer": null, "strides": [1, 1], "kernel_initializer": {"config": {"scale": 1.0, "seed": null, "mode": "fan_avg", "distribution": "uniform"}, "class_name": "VarianceScaling"}, "data_format": "channels_last", "kernel_constraint": null, "dilation_rate": [1, 1], "kernel_regularizer": null, "bias_constraint": null, "padding": "valid", "filters": 64, "use_bias": true, "name": "res2c_branch2a", "bias_regularizer": null, "kernel_size": [1, 1], "bias_initializer": {"config": {}, "class_name": "Zeros"}}, "class_name": "Conv2D", "inbound_nodes": [[["activation_7", 0, 0, {}]]]}, {"name": "bn2c_branch2a", "config": {"trainable": false, "moving_mean_initializer": {"config": {}, "class_name": "Zeros"}, "beta_regularizer": null, "center": true, "beta_constraint": null, "scale": true, "momentum": 0.99, "epsilon": 0.001, "name": "bn2c_branch2a", "axis": 3, "gamma_regularizer": null, "gamma_constraint": null, "moving_variance_initializer": {"config": {}, "class_name": "Ones"}, "gamma_initializer": {"config": {}, "class_name": "Ones"}, "beta_initializer": {"config": {}, "class_name": "Zeros"}}, "class_name": "BatchNormalization", "inbound_nodes": [[["res2c_branch2a", 0, 0, {}]]]}, {"name": "activation_8", "config": {"activation": "relu", "trainable": false, "name": "activation_8"}, "class_name": "Activation", "inbound_nodes": [[["bn2c_branch2a", 0, 0, {}]]]}, {"name": "res2c_branch2b", "config": {"activation": "linear", "trainable": false, "activity_regularizer": null, "strides": [1, 1], "kernel_initializer": {"config": {"scale": 1.0, "seed": null, "mode": "fan_avg", "distribution": "uniform"}, "class_name": "VarianceScaling"}, "data_format": "channels_last", "kernel_constraint": null, "dilation_rate": [1, 1], "kernel_regularizer": null, "bias_constraint": null, "padding": "same", "filters": 64, "use_bias": true, "name": "res2c_branch2b", "bias_regularizer": null, "kernel_size": [3, 3], "bias_initializer": {"config": {}, "class_name": "Zeros"}}, "class_name": "Conv2D", "inbound_nodes": [[["activation_8", 0, 0, {}]]]}, {"name": "bn2c_branch2b", "config": {"trainable": false, "moving_mean_initializer": {"config": {}, "class_name": "Zeros"}, "beta_regularizer": null, "center": true, "beta_constraint": null, "scale": true, "momentum": 0.99, "epsilon": 0.001, "name": "bn2c_branch2b", "axis": 3, "gamma_regularizer": null, "gamma_constraint": null, "moving_variance_initializer": {"config": {}, "class_name": "Ones"}, "gamma_initializer": {"config": {}, "class_name": "Ones"}, "beta_initializer": {"config": {}, "class_name": "Zeros"}}, "class_name": "BatchNormalization", "inbound_nodes": [[["res2c_branch2b", 0, 0, {}]]]}, {"name": "activation_9", "config": {"activation": "relu", "trainable": false, "name": "activation_9"}, "class_name": "Activation", "inbound_nodes": [[["bn2c_branch2b", 0, 0, {}]]]}, {"name": "res2c_branch2c", "config": {"activation": "linear", "trainable": false, "activity_regularizer": null, "strides": [1, 1], "kernel_initializer": {"config": {"scale": 1.0, "seed": null, "mode": "fan_avg", "distribution": "uniform"}, "class_name": "VarianceScaling"}, "data_format": "channels_last", "kernel_constraint": null, "dilation_rate": [1, 1], "kernel_regularizer": null, "bias_constraint": null, "padding": "valid", "filters": 256, "use_bias": true, "name": "res2c_branch2c", "bias_regularizer": null, "kernel_size": [1, 1], "bias_initializer": {"config": {}, "class_name": "Zeros"}}, "class_name": "Conv2D", "inbound_nodes": [[["activation_9", 0, 0, {}]]]}, {"name": "bn2c_branch2c", "config": {"trainable": false, "moving_mean_initializer": {"config": {}, "class_name": "Zeros"}, "beta_regularizer": null, "center": true, "beta_constraint": null, "scale": true, "momentum": 0.99, "epsilon": 0.001, "name": "bn2c_branch2c", "axis": 3, "gamma_regularizer": null, "gamma_constraint": null, "moving_variance_initializer": {"config": {}, "class_name": "Ones"}, "gamma_initializer": {"config": {}, "class_name": "Ones"}, "beta_initializer": {"config": {}, "class_name": "Zeros"}}, "class_name": "BatchNormalization", "inbound_nodes": [[["res2c_branch2c", 0, 0, {}]]]}, {"name": "add_3", "config": {"trainable": false, "name": "add_3"}, "class_name": "Add", "inbound_nodes": [[["bn2c_branch2c", 0, 0, {}], ["activation_7", 0, 0, {}]]]}, {"name": "activation_10", "config": {"activation": "relu", "trainable": false, "name": "activation_10"}, "class_name": "Activation", "inbound_nodes": [[["add_3", 0, 0, {}]]]}, {"name": "res3a_branch2a", "config": {"activation": "linear", "trainable": false, "activity_regularizer": null, "strides": [2, 2], "kernel_initializer": {"config": {"scale": 1.0, "seed": null, "mode": "fan_avg", "distribution": "uniform"}, "class_name": "VarianceScaling"}, "data_format": "channels_last", "kernel_constraint": null, "dilation_rate": [1, 1], "kernel_regularizer": null, "bias_constraint": null, "padding": "valid", "filters": 128, "use_bias": true, "name": "res3a_branch2a", "bias_regularizer": null, "kernel_size": [1, 1], "bias_initializer": {"config": {}, "class_name": "Zeros"}}, "class_name": "Conv2D", "inbound_nodes": [[["activation_10", 0, 0, {}]]]}, {"name": "bn3a_branch2a", "config": {"trainable": false, "moving_mean_initializer": {"config": {}, "class_name": "Zeros"}, "beta_regularizer": null, "center": true, "beta_constraint": null, "scale": true, "momentum": 0.99, "epsilon": 0.001, "name": "bn3a_branch2a", "axis": 3, "gamma_regularizer": null, "gamma_constraint": null, "moving_variance_initializer": {"config": {}, "class_name": "Ones"}, "gamma_initializer": {"config": {}, "class_name": "Ones"}, "beta_initializer": {"config": {}, "class_name": "Zeros"}}, "class_name": "BatchNormalization", "inbound_nodes": [[["res3a_branch2a", 0, 0, {}]]]}, {"name": "activation_11", "config": {"activation": "relu", "trainable": false, "name": "activation_11"}, "class_name": "Activation", "inbound_nodes": [[["bn3a_branch2a", 0, 0, {}]]]}, {"name": "res3a_branch2b", "config": {"activation": "linear", "trainable": false, "activity_regularizer": null, "strides": [1, 1], "kernel_initializer": {"config": {"scale": 1.0, "seed": null, "mode": "fan_avg", "distribution": "uniform"}, "class_name": "VarianceScaling"}, "data_format": "channels_last", "kernel_constraint": null, "dilation_rate": [1, 1], "kernel_regularizer": null, "bias_constraint": null, "padding": "same", "filters": 128, "use_bias": true, "name": "res3a_branch2b", "bias_regularizer": null, "kernel_size": [3, 3], "bias_initializer": {"config": {}, "class_name": "Zeros"}}, "class_name": "Conv2D", "inbound_nodes": [[["activation_11", 0, 0, {}]]]}, {"name": "bn3a_branch2b", "config": {"trainable": false, "moving_mean_initializer": {"config": {}, "class_name": "Zeros"}, "beta_regularizer": null, "center": true, "beta_constraint": null, "scale": true, "momentum": 0.99, "epsilon": 0.001, "name": "bn3a_branch2b", "axis": 3, "gamma_regularizer": null, "gamma_constraint": null, "moving_variance_initializer": {"config": {}, "class_name": "Ones"}, "gamma_initializer": {"config": {}, "class_name": "Ones"}, "beta_initializer": {"config": {}, "class_name": "Zeros"}}, "class_name": "BatchNormalization", "inbound_nodes": [[["res3a_branch2b", 0, 0, {}]]]}, {"name": "activation_12", "config": {"activation": "relu", "trainable": false, "name": "activation_12"}, "class_name": "Activation", "inbound_nodes": [[["bn3a_branch2b", 0, 0, {}]]]}, {"name": "res3a_branch2c", "config": {"activation": "linear", "trainable": false, "activity_regularizer": null, "strides": [1, 1], "kernel_initializer": {"config": {"scale": 1.0, "seed": null, "mode": "fan_avg", "distribution": "uniform"}, "class_name": "VarianceScaling"}, "data_format": "channels_last", "kernel_constraint": null, "dilation_rate": [1, 1], "kernel_regularizer": null, "bias_constraint": null, "padding": "valid", "filters": 512, "use_bias": true, "name": "res3a_branch2c", "bias_regularizer": null, "kernel_size": [1, 1], "bias_initializer": {"config": {}, "class_name": "Zeros"}}, "class_name": "Conv2D", "inbound_nodes": [[["activation_12", 0, 0, {}]]]}, {"name": "res3a_branch1", "config": {"activation": "linear", "trainable": false, "activity_regularizer": null, "strides": [2, 2], "kernel_initializer": {"config": {"scale": 1.0, "seed": null, "mode": "fan_avg", "distribution": "uniform"}, "class_name": "VarianceScaling"}, "data_format": "channels_last", "kernel_constraint": null, "dilation_rate": [1, 1], "kernel_regularizer": null, "bias_constraint": null, "padding": "valid", "filters": 512, "use_bias": true, "name": "res3a_branch1", "bias_regularizer": null, "kernel_size": [1, 1], "bias_initializer": {"config": {}, "class_name": "Zeros"}}, "class_name": "Conv2D", "inbound_nodes": [[["activation_10", 0, 0, {}]]]}, {"name": "bn3a_branch2c", "config": {"trainable": false, "moving_mean_initializer": {"config": {}, "class_name": "Zeros"}, "beta_regularizer": null, "center": true, "beta_constraint": null, "scale": true, "momentum": 0.99, "epsilon": 0.001, "name": "bn3a_branch2c", "axis": 3, "gamma_regularizer": null, "gamma_constraint": null, "moving_variance_initializer": {"config": {}, "class_name": "Ones"}, "gamma_initializer": {"config": {}, "class_name": "Ones"}, "beta_initializer": {"config": {}, "class_name": "Zeros"}}, "class_name": "BatchNormalization", "inbound_nodes": [[["res3a_branch2c", 0, 0, {}]]]}, {"name": "bn3a_branch1", "config": {"trainable": false, "moving_mean_initializer": {"config": {}, "class_name": "Zeros"}, "beta_regularizer": null, "center": true, "beta_constraint": null, "scale": true, "momentum": 0.99, "epsilon": 0.001, "name": "bn3a_branch1", "axis": 3, "gamma_regularizer": null, "gamma_constraint": null, "moving_variance_initializer": {"config": {}, "class_name": "Ones"}, "gamma_initializer": {"config": {}, "class_name": "Ones"}, "beta_initializer": {"config": {}, "class_name": "Zeros"}}, "class_name": "BatchNormalization", "inbound_nodes": [[["res3a_branch1", 0, 0, {}]]]}, {"name": "add_4", "config": {"trainable": false, "name": "add_4"}, "class_name": "Add", "inbound_nodes": [[["bn3a_branch2c", 0, 0, {}], ["bn3a_branch1", 0, 0, {}]]]}, {"name": "activation_13", "config": {"activation": "relu", "trainable": false, "name": "activation_13"}, "class_name": "Activation", "inbound_nodes": [[["add_4", 0, 0, {}]]]}, {"name": "res3b_branch2a", "config": {"activation": "linear", "trainable": false, "activity_regularizer": null, "strides": [1, 1], "kernel_initializer": {"config": {"scale": 1.0, "seed": null, "mode": "fan_avg", "distribution": "uniform"}, "class_name": "VarianceScaling"}, "data_format": "channels_last", "kernel_constraint": null, "dilation_rate": [1, 1], "kernel_regularizer": null, "bias_constraint": null, "padding": "valid", "filters": 128, "use_bias": true, "name": "res3b_branch2a", "bias_regularizer": null, "kernel_size": [1, 1], "bias_initializer": {"config": {}, "class_name": "Zeros"}}, "class_name": "Conv2D", "inbound_nodes": [[["activation_13", 0, 0, {}]]]}, {"name": "bn3b_branch2a", "config": {"trainable": false, "moving_mean_initializer": {"config": {}, "class_name": "Zeros"}, "beta_regularizer": null, "center": true, "beta_constraint": null, "scale": true, "momentum": 0.99, "epsilon": 0.001, "name": "bn3b_branch2a", "axis": 3, "gamma_regularizer": null, "gamma_constraint": null, "moving_variance_initializer": {"config": {}, "class_name": "Ones"}, "gamma_initializer": {"config": {}, "class_name": "Ones"}, "beta_initializer": {"config": {}, "class_name": "Zeros"}}, "class_name": "BatchNormalization", "inbound_nodes": [[["res3b_branch2a", 0, 0, {}]]]}, {"name": "activation_14", "config": {"activation": "relu", "trainable": false, "name": "activation_14"}, "class_name": "Activation", "inbound_nodes": [[["bn3b_branch2a", 0, 0, {}]]]}, {"name": "res3b_branch2b", "config": {"activation": "linear", "trainable": false, "activity_regularizer": null, "strides": [1, 1], "kernel_initializer": {"config": {"scale": 1.0, "seed": null, "mode": "fan_avg", "distribution": "uniform"}, "class_name": "VarianceScaling"}, "data_format": "channels_last", "kernel_constraint": null, "dilation_rate": [1, 1], "kernel_regularizer": null, "bias_constraint": null, "padding": "same", "filters": 128, "use_bias": true, "name": "res3b_branch2b", "bias_regularizer": null, "kernel_size": [3, 3], "bias_initializer": {"config": {}, "class_name": "Zeros"}}, "class_name": "Conv2D", "inbound_nodes": [[["activation_14", 0, 0, {}]]]}, {"name": "bn3b_branch2b", "config": {"trainable": false, "moving_mean_initializer": {"config": {}, "class_name": "Zeros"}, "beta_regularizer": null, "center": true, "beta_constraint": null, "scale": true, "momentum": 0.99, "epsilon": 0.001, "name": "bn3b_branch2b", "axis": 3, "gamma_regularizer": null, "gamma_constraint": null, "moving_variance_initializer": {"config": {}, "class_name": "Ones"}, "gamma_initializer": {"config": {}, "class_name": "Ones"}, "beta_initializer": {"config": {}, "class_name": "Zeros"}}, "class_name": "BatchNormalization", "inbound_nodes": [[["res3b_branch2b", 0, 0, {}]]]}, {"name": "activation_15", "config": {"activation": "relu", "trainable": false, "name": "activation_15"}, "class_name": "Activation", "inbound_nodes": [[["bn3b_branch2b", 0, 0, {}]]]}, {"name": "res3b_branch2c", "config": {"activation": "linear", "trainable": false, "activity_regularizer": null, "strides": [1, 1], "kernel_initializer": {"config": {"scale": 1.0, "seed": null, "mode": "fan_avg", "distribution": "uniform"}, "class_name": "VarianceScaling"}, "data_format": "channels_last", "kernel_constraint": null, "dilation_rate": [1, 1], "kernel_regularizer": null, "bias_constraint": null, "padding": "valid", "filters": 512, "use_bias": true, "name": "res3b_branch2c", "bias_regularizer": null, "kernel_size": [1, 1], "bias_initializer": {"config": {}, "class_name": "Zeros"}}, "class_name": "Conv2D", "inbound_nodes": [[["activation_15", 0, 0, {}]]]}, {"name": "bn3b_branch2c", "config": {"trainable": false, "moving_mean_initializer": {"config": {}, "class_name": "Zeros"}, "beta_regularizer": null, "center": true, "beta_constraint": null, "scale": true, "momentum": 0.99, "epsilon": 0.001, "name": "bn3b_branch2c", "axis": 3, "gamma_regularizer": null, "gamma_constraint": null, "moving_variance_initializer": {"config": {}, "class_name": "Ones"}, "gamma_initializer": {"config": {}, "class_name": "Ones"}, "beta_initializer": {"config": {}, "class_name": "Zeros"}}, "class_name": "BatchNormalization", "inbound_nodes": [[["res3b_branch2c", 0, 0, {}]]]}, {"name": "add_5", "config": {"trainable": false, "name": "add_5"}, "class_name": "Add", "inbound_nodes": [[["bn3b_branch2c", 0, 0, {}], ["activation_13", 0, 0, {}]]]}, {"name": "activation_16", "config": {"activation": "relu", "trainable": false, "name": "activation_16"}, "class_name": "Activation", "inbound_nodes": [[["add_5", 0, 0, {}]]]}, {"name": "res3c_branch2a", "config": {"activation": "linear", "trainable": false, "activity_regularizer": null, "strides": [1, 1], "kernel_initializer": {"config": {"scale": 1.0, "seed": null, "mode": "fan_avg", "distribution": "uniform"}, "class_name": "VarianceScaling"}, "data_format": "channels_last", "kernel_constraint": null, "dilation_rate": [1, 1], "kernel_regularizer": null, "bias_constraint": null, "padding": "valid", "filters": 128, "use_bias": true, "name": "res3c_branch2a", "bias_regularizer": null, "kernel_size": [1, 1], "bias_initializer": {"config": {}, "class_name": "Zeros"}}, "class_name": "Conv2D", "inbound_nodes": [[["activation_16", 0, 0, {}]]]}, {"name": "bn3c_branch2a", "config": {"trainable": false, "moving_mean_initializer": {"config": {}, "class_name": "Zeros"}, "beta_regularizer": null, "center": true, "beta_constraint": null, "scale": true, "momentum": 0.99, "epsilon": 0.001, "name": "bn3c_branch2a", "axis": 3, "gamma_regularizer": null, "gamma_constraint": null, "moving_variance_initializer": {"config": {}, "class_name": "Ones"}, "gamma_initializer": {"config": {}, "class_name": "Ones"}, "beta_initializer": {"config": {}, "class_name": "Zeros"}}, "class_name": "BatchNormalization", "inbound_nodes": [[["res3c_branch2a", 0, 0, {}]]]}, {"name": "activation_17", "config": {"activation": "relu", "trainable": false, "name": "activation_17"}, "class_name": "Activation", "inbound_nodes": [[["bn3c_branch2a", 0, 0, {}]]]}, {"name": "res3c_branch2b", "config": {"activation": "linear", "trainable": false, "activity_regularizer": null, "strides": [1, 1], "kernel_initializer": {"config": {"scale": 1.0, "seed": null, "mode": "fan_avg", "distribution": "uniform"}, "class_name": "VarianceScaling"}, "data_format": "channels_last", "kernel_constraint": null, "dilation_rate": [1, 1], "kernel_regularizer": null, "bias_constraint": null, "padding": "same", "filters": 128, "use_bias": true, "name": "res3c_branch2b", "bias_regularizer": null, "kernel_size": [3, 3], "bias_initializer": {"config": {}, "class_name": "Zeros"}}, "class_name": "Conv2D", "inbound_nodes": [[["activation_17", 0, 0, {}]]]}, {"name": "bn3c_branch2b", "config": {"trainable": false, "moving_mean_initializer": {"config": {}, "class_name": "Zeros"}, "beta_regularizer": null, "center": true, "beta_constraint": null, "scale": true, "momentum": 0.99, "epsilon": 0.001, "name": "bn3c_branch2b", "axis": 3, "gamma_regularizer": null, "gamma_constraint": null, "moving_variance_initializer": {"config": {}, "class_name": "Ones"}, "gamma_initializer": {"config": {}, "class_name": "Ones"}, "beta_initializer": {"config": {}, "class_name": "Zeros"}}, "class_name": "BatchNormalization", "inbound_nodes": [[["res3c_branch2b", 0, 0, {}]]]}, {"name": "activation_18", "config": {"activation": "relu", "trainable": false, "name": "activation_18"}, "class_name": "Activation", "inbound_nodes": [[["bn3c_branch2b", 0, 0, {}]]]}, {"name": "res3c_branch2c", "config": {"activation": "linear", "trainable": false, "activity_regularizer": null, "strides": [1, 1], "kernel_initializer": {"config": {"scale": 1.0, "seed": null, "mode": "fan_avg", "distribution": "uniform"}, "class_name": "VarianceScaling"}, "data_format": "channels_last", "kernel_constraint": null, "dilation_rate": [1, 1], "kernel_regularizer": null, "bias_constraint": null, "padding": "valid", "filters": 512, "use_bias": true, "name": "res3c_branch2c", "bias_regularizer": null, "kernel_size": [1, 1], "bias_initializer": {"config": {}, "class_name": "Zeros"}}, "class_name": "Conv2D", "inbound_nodes": [[["activation_18", 0, 0, {}]]]}, {"name": "bn3c_branch2c", "config": {"trainable": false, "moving_mean_initializer": {"config": {}, "class_name": "Zeros"}, "beta_regularizer": null, "center": true, "beta_constraint": null, "scale": true, "momentum": 0.99, "epsilon": 0.001, "name": "bn3c_branch2c", "axis": 3, "gamma_regularizer": null, "gamma_constraint": null, "moving_variance_initializer": {"config": {}, "class_name": "Ones"}, "gamma_initializer": {"config": {}, "class_name": "Ones"}, "beta_initializer": {"config": {}, "class_name": "Zeros"}}, "class_name": "BatchNormalization", "inbound_nodes": [[["res3c_branch2c", 0, 0, {}]]]}, {"name": "add_6", "config": {"trainable": false, "name": "add_6"}, "class_name": "Add", "inbound_nodes": [[["bn3c_branch2c", 0, 0, {}], ["activation_16", 0, 0, {}]]]}, {"name": "activation_19", "config": {"activation": "relu", "trainable": false, "name": "activation_19"}, "class_name": "Activation", "inbound_nodes": [[["add_6", 0, 0, {}]]]}, {"name": "res3d_branch2a", "config": {"activation": "linear", "trainable": false, "activity_regularizer": null, "strides": [1, 1], "kernel_initializer": {"config": {"scale": 1.0, "seed": null, "mode": "fan_avg", "distribution": "uniform"}, "class_name": "VarianceScaling"}, "data_format": "channels_last", "kernel_constraint": null, "dilation_rate": [1, 1], "kernel_regularizer": null, "bias_constraint": null, "padding": "valid", "filters": 128, "use_bias": true, "name": "res3d_branch2a", "bias_regularizer": null, "kernel_size": [1, 1], "bias_initializer": {"config": {}, "class_name": "Zeros"}}, "class_name": "Conv2D", "inbound_nodes": [[["activation_19", 0, 0, {}]]]}, {"name": "bn3d_branch2a", "config": {"trainable": false, "moving_mean_initializer": {"config": {}, "class_name": "Zeros"}, "beta_regularizer": null, "center": true, "beta_constraint": null, "scale": true, "momentum": 0.99, "epsilon": 0.001, "name": "bn3d_branch2a", "axis": 3, "gamma_regularizer": null, "gamma_constraint": null, "moving_variance_initializer": {"config": {}, "class_name": "Ones"}, "gamma_initializer": {"config": {}, "class_name": "Ones"}, "beta_initializer": {"config": {}, "class_name": "Zeros"}}, "class_name": "BatchNormalization", "inbound_nodes": [[["res3d_branch2a", 0, 0, {}]]]}, {"name": "activation_20", "config": {"activation": "relu", "trainable": false, "name": "activation_20"}, "class_name": "Activation", "inbound_nodes": [[["bn3d_branch2a", 0, 0, {}]]]}, {"name": "res3d_branch2b", "config": {"activation": "linear", "trainable": false, "activity_regularizer": null, "strides": [1, 1], "kernel_initializer": {"config": {"scale": 1.0, "seed": null, "mode": "fan_avg", "distribution": "uniform"}, "class_name": "VarianceScaling"}, "data_format": "channels_last", "kernel_constraint": null, "dilation_rate": [1, 1], "kernel_regularizer": null, "bias_constraint": null, "padding": "same", "filters": 128, "use_bias": true, "name": "res3d_branch2b", "bias_regularizer": null, "kernel_size": [3, 3], "bias_initializer": {"config": {}, "class_name": "Zeros"}}, "class_name": "Conv2D", "inbound_nodes": [[["activation_20", 0, 0, {}]]]}, {"name": "bn3d_branch2b", "config": {"trainable": false, "moving_mean_initializer": {"config": {}, "class_name": "Zeros"}, "beta_regularizer": null, "center": true, "beta_constraint": null, "scale": true, "momentum": 0.99, "epsilon": 0.001, "name": "bn3d_branch2b", "axis": 3, "gamma_regularizer": null, "gamma_constraint": null, "moving_variance_initializer": {"config": {}, "class_name": "Ones"}, "gamma_initializer": {"config": {}, "class_name": "Ones"}, "beta_initializer": {"config": {}, "class_name": "Zeros"}}, "class_name": "BatchNormalization", "inbound_nodes": [[["res3d_branch2b", 0, 0, {}]]]}, {"name": "activation_21", "config": {"activation": "relu", "trainable": false, "name": "activation_21"}, "class_name": "Activation", "inbound_nodes": [[["bn3d_branch2b", 0, 0, {}]]]}, {"name": "res3d_branch2c", "config": {"activation": "linear", "trainable": false, "activity_regularizer": null, "strides": [1, 1], "kernel_initializer": {"config": {"scale": 1.0, "seed": null, "mode": "fan_avg", "distribution": "uniform"}, "class_name": "VarianceScaling"}, "data_format": "channels_last", "kernel_constraint": null, "dilation_rate": [1, 1], "kernel_regularizer": null, "bias_constraint": null, "padding": "valid", "filters": 512, "use_bias": true, "name": "res3d_branch2c", "bias_regularizer": null, "kernel_size": [1, 1], "bias_initializer": {"config": {}, "class_name": "Zeros"}}, "class_name": "Conv2D", "inbound_nodes": [[["activation_21", 0, 0, {}]]]}, {"name": "bn3d_branch2c", "config": {"trainable": false, "moving_mean_initializer": {"config": {}, "class_name": "Zeros"}, "beta_regularizer": null, "center": true, "beta_constraint": null, "scale": true, "momentum": 0.99, "epsilon": 0.001, "name": "bn3d_branch2c", "axis": 3, "gamma_regularizer": null, "gamma_constraint": null, "moving_variance_initializer": {"config": {}, "class_name": "Ones"}, "gamma_initializer": {"config": {}, "class_name": "Ones"}, "beta_initializer": {"config": {}, "class_name": "Zeros"}}, "class_name": "BatchNormalization", "inbound_nodes": [[["res3d_branch2c", 0, 0, {}]]]}, {"name": "add_7", "config": {"trainable": false, "name": "add_7"}, "class_name": "Add", "inbound_nodes": [[["bn3d_branch2c", 0, 0, {}], ["activation_19", 0, 0, {}]]]}, {"name": "activation_22", "config": {"activation": "relu", "trainable": false, "name": "activation_22"}, "class_name": "Activation", "inbound_nodes": [[["add_7", 0, 0, {}]]]}, {"name": "res4a_branch2a", "config": {"activation": "linear", "trainable": false, "activity_regularizer": null, "strides": [2, 2], "kernel_initializer": {"config": {"scale": 1.0, "seed": null, "mode": "fan_avg", "distribution": "uniform"}, "class_name": "VarianceScaling"}, "data_format": "channels_last", "kernel_constraint": null, "dilation_rate": [1, 1], "kernel_regularizer": null, "bias_constraint": null, "padding": "valid", "filters": 256, "use_bias": true, "name": "res4a_branch2a", "bias_regularizer": null, "kernel_size": [1, 1], "bias_initializer": {"config": {}, "class_name": "Zeros"}}, "class_name": "Conv2D", "inbound_nodes": [[["activation_22", 0, 0, {}]]]}, {"name": "bn4a_branch2a", "config": {"trainable": false, "moving_mean_initializer": {"config": {}, "class_name": "Zeros"}, "beta_regularizer": null, "center": true, "beta_constraint": null, "scale": true, "momentum": 0.99, "epsilon": 0.001, "name": "bn4a_branch2a", "axis": 3, "gamma_regularizer": null, "gamma_constraint": null, "moving_variance_initializer": {"config": {}, "class_name": "Ones"}, "gamma_initializer": {"config": {}, "class_name": "Ones"}, "beta_initializer": {"config": {}, "class_name": "Zeros"}}, "class_name": "BatchNormalization", "inbound_nodes": [[["res4a_branch2a", 0, 0, {}]]]}, {"name": "activation_23", "config": {"activation": "relu", "trainable": false, "name": "activation_23"}, "class_name": "Activation", "inbound_nodes": [[["bn4a_branch2a", 0, 0, {}]]]}, {"name": "res4a_branch2b", "config": {"activation": "linear", "trainable": false, "activity_regularizer": null, "strides": [1, 1], "kernel_initializer": {"config": {"scale": 1.0, "seed": null, "mode": "fan_avg", "distribution": "uniform"}, "class_name": "VarianceScaling"}, "data_format": "channels_last", "kernel_constraint": null, "dilation_rate": [1, 1], "kernel_regularizer": null, "bias_constraint": null, "padding": "same", "filters": 256, "use_bias": true, "name": "res4a_branch2b", "bias_regularizer": null, "kernel_size": [3, 3], "bias_initializer": {"config": {}, "class_name": "Zeros"}}, "class_name": "Conv2D", "inbound_nodes": [[["activation_23", 0, 0, {}]]]}, {"name": "bn4a_branch2b", "config": {"trainable": false, "moving_mean_initializer": {"config": {}, "class_name": "Zeros"}, "beta_regularizer": null, "center": true, "beta_constraint": null, "scale": true, "momentum": 0.99, "epsilon": 0.001, "name": "bn4a_branch2b", "axis": 3, "gamma_regularizer": null, "gamma_constraint": null, "moving_variance_initializer": {"config": {}, "class_name": "Ones"}, "gamma_initializer": {"config": {}, "class_name": "Ones"}, "beta_initializer": {"config": {}, "class_name": "Zeros"}}, "class_name": "BatchNormalization", "inbound_nodes": [[["res4a_branch2b", 0, 0, {}]]]}, {"name": "activation_24", "config": {"activation": "relu", "trainable": false, "name": "activation_24"}, "class_name": "Activation", "inbound_nodes": [[["bn4a_branch2b", 0, 0, {}]]]}, {"name": "res4a_branch2c", "config": {"activation": "linear", "trainable": false, "activity_regularizer": null, "strides": [1, 1], "kernel_initializer": {"config": {"scale": 1.0, "seed": null, "mode": "fan_avg", "distribution": "uniform"}, "class_name": "VarianceScaling"}, "data_format": "channels_last", "kernel_constraint": null, "dilation_rate": [1, 1], "kernel_regularizer": null, "bias_constraint": null, "padding": "valid", "filters": 1024, "use_bias": true, "name": "res4a_branch2c", "bias_regularizer": null, "kernel_size": [1, 1], "bias_initializer": {"config": {}, "class_name": "Zeros"}}, "class_name": "Conv2D", "inbound_nodes": [[["activation_24", 0, 0, {}]]]}, {"name": "res4a_branch1", "config": {"activation": "linear", "trainable": false, "activity_regularizer": null, "strides": [2, 2], "kernel_initializer": {"config": {"scale": 1.0, "seed": null, "mode": "fan_avg", "distribution": "uniform"}, "class_name": "VarianceScaling"}, "data_format": "channels_last", "kernel_constraint": null, "dilation_rate": [1, 1], "kernel_regularizer": null, "bias_constraint": null, "padding": "valid", "filters": 1024, "use_bias": true, "name": "res4a_branch1", "bias_regularizer": null, "kernel_size": [1, 1], "bias_initializer": {"config": {}, "class_name": "Zeros"}}, "class_name": "Conv2D", "inbound_nodes": [[["activation_22", 0, 0, {}]]]}, {"name": "bn4a_branch2c", "config": {"trainable": false, "moving_mean_initializer": {"config": {}, "class_name": "Zeros"}, "beta_regularizer": null, "center": true, "beta_constraint": null, "scale": true, "momentum": 0.99, "epsilon": 0.001, "name": "bn4a_branch2c", "axis": 3, "gamma_regularizer": null, "gamma_constraint": null, "moving_variance_initializer": {"config": {}, "class_name": "Ones"}, "gamma_initializer": {"config": {}, "class_name": "Ones"}, "beta_initializer": {"config": {}, "class_name": "Zeros"}}, "class_name": "BatchNormalization", "inbound_nodes": [[["res4a_branch2c", 0, 0, {}]]]}, {"name": "bn4a_branch1", "config": {"trainable": false, "moving_mean_initializer": {"config": {}, "class_name": "Zeros"}, "beta_regularizer": null, "center": true, "beta_constraint": null, "scale": true, "momentum": 0.99, "epsilon": 0.001, "name": "bn4a_branch1", "axis": 3, "gamma_regularizer": null, "gamma_constraint": null, "moving_variance_initializer": {"config": {}, "class_name": "Ones"}, "gamma_initializer": {"config": {}, "class_name": "Ones"}, "beta_initializer": {"config": {}, "class_name": "Zeros"}}, "class_name": "BatchNormalization", "inbound_nodes": [[["res4a_branch1", 0, 0, {}]]]}, {"name": "add_8", "config": {"trainable": false, "name": "add_8"}, "class_name": "Add", "inbound_nodes": [[["bn4a_branch2c", 0, 0, {}], ["bn4a_branch1", 0, 0, {}]]]}, {"name": "activation_25", "config": {"activation": "relu", "trainable": false, "name": "activation_25"}, "class_name": "Activation", "inbound_nodes": [[["add_8", 0, 0, {}]]]}, {"name": "res4b_branch2a", "config": {"activation": "linear", "trainable": false, "activity_regularizer": null, "strides": [1, 1], "kernel_initializer": {"config": {"scale": 1.0, "seed": null, "mode": "fan_avg", "distribution": "uniform"}, "class_name": "VarianceScaling"}, "data_format": "channels_last", "kernel_constraint": null, "dilation_rate": [1, 1], "kernel_regularizer": null, "bias_constraint": null, "padding": "valid", "filters": 256, "use_bias": true, "name": "res4b_branch2a", "bias_regularizer": null, "kernel_size": [1, 1], "bias_initializer": {"config": {}, "class_name": "Zeros"}}, "class_name": "Conv2D", "inbound_nodes": [[["activation_25", 0, 0, {}]]]}, {"name": "bn4b_branch2a", "config": {"trainable": false, "moving_mean_initializer": {"config": {}, "class_name": "Zeros"}, "beta_regularizer": null, "center": true, "beta_constraint": null, "scale": true, "momentum": 0.99, "epsilon": 0.001, "name": "bn4b_branch2a", "axis": 3, "gamma_regularizer": null, "gamma_constraint": null, "moving_variance_initializer": {"config": {}, "class_name": "Ones"}, "gamma_initializer": {"config": {}, "class_name": "Ones"}, "beta_initializer": {"config": {}, "class_name": "Zeros"}}, "class_name": "BatchNormalization", "inbound_nodes": [[["res4b_branch2a", 0, 0, {}]]]}, {"name": "activation_26", "config": {"activation": "relu", "trainable": false, "name": "activation_26"}, "class_name": "Activation", "inbound_nodes": [[["bn4b_branch2a", 0, 0, {}]]]}, {"name": "res4b_branch2b", "config": {"activation": "linear", "trainable": false, "activity_regularizer": null, "strides": [1, 1], "kernel_initializer": {"config": {"scale": 1.0, "seed": null, "mode": "fan_avg", "distribution": "uniform"}, "class_name": "VarianceScaling"}, "data_format": "channels_last", "kernel_constraint": null, "dilation_rate": [1, 1], "kernel_regularizer": null, "bias_constraint": null, "padding": "same", "filters": 256, "use_bias": true, "name": "res4b_branch2b", "bias_regularizer": null, "kernel_size": [3, 3], "bias_initializer": {"config": {}, "class_name": "Zeros"}}, "class_name": "Conv2D", "inbound_nodes": [[["activation_26", 0, 0, {}]]]}, {"name": "bn4b_branch2b", "config": {"trainable": false, "moving_mean_initializer": {"config": {}, "class_name": "Zeros"}, "beta_regularizer": null, "center": true, "beta_constraint": null, "scale": true, "momentum": 0.99, "epsilon": 0.001, "name": "bn4b_branch2b", "axis": 3, "gamma_regularizer": null, "gamma_constraint": null, "moving_variance_initializer": {"config": {}, "class_name": "Ones"}, "gamma_initializer": {"config": {}, "class_name": "Ones"}, "beta_initializer": {"config": {}, "class_name": "Zeros"}}, "class_name": "BatchNormalization", "inbound_nodes": [[["res4b_branch2b", 0, 0, {}]]]}, {"name": "activation_27", "config": {"activation": "relu", "trainable": false, "name": "activation_27"}, "class_name": "Activation", "inbound_nodes": [[["bn4b_branch2b", 0, 0, {}]]]}, {"name": "res4b_branch2c", "config": {"activation": "linear", "trainable": false, "activity_regularizer": null, "strides": [1, 1], "kernel_initializer": {"config": {"scale": 1.0, "seed": null, "mode": "fan_avg", "distribution": "uniform"}, "class_name": "VarianceScaling"}, "data_format": "channels_last", "kernel_constraint": null, "dilation_rate": [1, 1], "kernel_regularizer": null, "bias_constraint": null, "padding": "valid", "filters": 1024, "use_bias": true, "name": "res4b_branch2c", "bias_regularizer": null, "kernel_size": [1, 1], "bias_initializer": {"config": {}, "class_name": "Zeros"}}, "class_name": "Conv2D", "inbound_nodes": [[["activation_27", 0, 0, {}]]]}, {"name": "bn4b_branch2c", "config": {"trainable": false, "moving_mean_initializer": {"config": {}, "class_name": "Zeros"}, "beta_regularizer": null, "center": true, "beta_constraint": null, "scale": true, "momentum": 0.99, "epsilon": 0.001, "name": "bn4b_branch2c", "axis": 3, "gamma_regularizer": null, "gamma_constraint": null, "moving_variance_initializer": {"config": {}, "class_name": "Ones"}, "gamma_initializer": {"config": {}, "class_name": "Ones"}, "beta_initializer": {"config": {}, "class_name": "Zeros"}}, "class_name": "BatchNormalization", "inbound_nodes": [[["res4b_branch2c", 0, 0, {}]]]}, {"name": "add_9", "config": {"trainable": false, "name": "add_9"}, "class_name": "Add", "inbound_nodes": [[["bn4b_branch2c", 0, 0, {}], ["activation_25", 0, 0, {}]]]}, {"name": "activation_28", "config": {"activation": "relu", "trainable": false, "name": "activation_28"}, "class_name": "Activation", "inbound_nodes": [[["add_9", 0, 0, {}]]]}, {"name": "res4c_branch2a", "config": {"activation": "linear", "trainable": false, "activity_regularizer": null, "strides": [1, 1], "kernel_initializer": {"config": {"scale": 1.0, "seed": null, "mode": "fan_avg", "distribution": "uniform"}, "class_name": "VarianceScaling"}, "data_format": "channels_last", "kernel_constraint": null, "dilation_rate": [1, 1], "kernel_regularizer": null, "bias_constraint": null, "padding": "valid", "filters": 256, "use_bias": true, "name": "res4c_branch2a", "bias_regularizer": null, "kernel_size": [1, 1], "bias_initializer": {"config": {}, "class_name": "Zeros"}}, "class_name": "Conv2D", "inbound_nodes": [[["activation_28", 0, 0, {}]]]}, {"name": "bn4c_branch2a", "config": {"trainable": false, "moving_mean_initializer": {"config": {}, "class_name": "Zeros"}, "beta_regularizer": null, "center": true, "beta_constraint": null, "scale": true, "momentum": 0.99, "epsilon": 0.001, "name": "bn4c_branch2a", "axis": 3, "gamma_regularizer": null, "gamma_constraint": null, "moving_variance_initializer": {"config": {}, "class_name": "Ones"}, "gamma_initializer": {"config": {}, "class_name": "Ones"}, "beta_initializer": {"config": {}, "class_name": "Zeros"}}, "class_name": "BatchNormalization", "inbound_nodes": [[["res4c_branch2a", 0, 0, {}]]]}, {"name": "activation_29", "config": {"activation": "relu", "trainable": false, "name": "activation_29"}, "class_name": "Activation", "inbound_nodes": [[["bn4c_branch2a", 0, 0, {}]]]}, {"name": "res4c_branch2b", "config": {"activation": "linear", "trainable": false, "activity_regularizer": null, "strides": [1, 1], "kernel_initializer": {"config": {"scale": 1.0, "seed": null, "mode": "fan_avg", "distribution": "uniform"}, "class_name": "VarianceScaling"}, "data_format": "channels_last", "kernel_constraint": null, "dilation_rate": [1, 1], "kernel_regularizer": null, "bias_constraint": null, "padding": "same", "filters": 256, "use_bias": true, "name": "res4c_branch2b", "bias_regularizer": null, "kernel_size": [3, 3], "bias_initializer": {"config": {}, "class_name": "Zeros"}}, "class_name": "Conv2D", "inbound_nodes": [[["activation_29", 0, 0, {}]]]}, {"name": "bn4c_branch2b", "config": {"trainable": false, "moving_mean_initializer": {"config": {}, "class_name": "Zeros"}, "beta_regularizer": null, "center": true, "beta_constraint": null, "scale": true, "momentum": 0.99, "epsilon": 0.001, "name": "bn4c_branch2b", "axis": 3, "gamma_regularizer": null, "gamma_constraint": null, "moving_variance_initializer": {"config": {}, "class_name": "Ones"}, "gamma_initializer": {"config": {}, "class_name": "Ones"}, "beta_initializer": {"config": {}, "class_name": "Zeros"}}, "class_name": "BatchNormalization", "inbound_nodes": [[["res4c_branch2b", 0, 0, {}]]]}, {"name": "activation_30", "config": {"activation": "relu", "trainable": false, "name": "activation_30"}, "class_name": "Activation", "inbound_nodes": [[["bn4c_branch2b", 0, 0, {}]]]}, {"name": "res4c_branch2c", "config": {"activation": "linear", "trainable": false, "activity_regularizer": null, "strides": [1, 1], "kernel_initializer": {"config": {"scale": 1.0, "seed": null, "mode": "fan_avg", "distribution": "uniform"}, "class_name": "VarianceScaling"}, "data_format": "channels_last", "kernel_constraint": null, "dilation_rate": [1, 1], "kernel_regularizer": null, "bias_constraint": null, "padding": "valid", "filters": 1024, "use_bias": true, "name": "res4c_branch2c", "bias_regularizer": null, "kernel_size": [1, 1], "bias_initializer": {"config": {}, "class_name": "Zeros"}}, "class_name": "Conv2D", "inbound_nodes": [[["activation_30", 0, 0, {}]]]}, {"name": "bn4c_branch2c", "config": {"trainable": false, "moving_mean_initializer": {"config": {}, "class_name": "Zeros"}, "beta_regularizer": null, "center": true, "beta_constraint": null, "scale": true, "momentum": 0.99, "epsilon": 0.001, "name": "bn4c_branch2c", "axis": 3, "gamma_regularizer": null, "gamma_constraint": null, "moving_variance_initializer": {"config": {}, "class_name": "Ones"}, "gamma_initializer": {"config": {}, "class_name": "Ones"}, "beta_initializer": {"config": {}, "class_name": "Zeros"}}, "class_name": "BatchNormalization", "inbound_nodes": [[["res4c_branch2c", 0, 0, {}]]]}, {"name": "add_10", "config": {"trainable": false, "name": "add_10"}, "class_name": "Add", "inbound_nodes": [[["bn4c_branch2c", 0, 0, {}], ["activation_28", 0, 0, {}]]]}, {"name": "activation_31", "config": {"activation": "relu", "trainable": false, "name": "activation_31"}, "class_name": "Activation", "inbound_nodes": [[["add_10", 0, 0, {}]]]}, {"name": "res4d_branch2a", "config": {"activation": "linear", "trainable": false, "activity_regularizer": null, "strides": [1, 1], "kernel_initializer": {"config": {"scale": 1.0, "seed": null, "mode": "fan_avg", "distribution": "uniform"}, "class_name": "VarianceScaling"}, "data_format": "channels_last", "kernel_constraint": null, "dilation_rate": [1, 1], "kernel_regularizer": null, "bias_constraint": null, "padding": "valid", "filters": 256, "use_bias": true, "name": "res4d_branch2a", "bias_regularizer": null, "kernel_size": [1, 1], "bias_initializer": {"config": {}, "class_name": "Zeros"}}, "class_name": "Conv2D", "inbound_nodes": [[["activation_31", 0, 0, {}]]]}, {"name": "bn4d_branch2a", "config": {"trainable": false, "moving_mean_initializer": {"config": {}, "class_name": "Zeros"}, "beta_regularizer": null, "center": true, "beta_constraint": null, "scale": true, "momentum": 0.99, "epsilon": 0.001, "name": "bn4d_branch2a", "axis": 3, "gamma_regularizer": null, "gamma_constraint": null, "moving_variance_initializer": {"config": {}, "class_name": "Ones"}, "gamma_initializer": {"config": {}, "class_name": "Ones"}, "beta_initializer": {"config": {}, "class_name": "Zeros"}}, "class_name": "BatchNormalization", "inbound_nodes": [[["res4d_branch2a", 0, 0, {}]]]}, {"name": "activation_32", "config": {"activation": "relu", "trainable": false, "name": "activation_32"}, "class_name": "Activation", "inbound_nodes": [[["bn4d_branch2a", 0, 0, {}]]]}, {"name": "res4d_branch2b", "config": {"activation": "linear", "trainable": false, "activity_regularizer": null, "strides": [1, 1], "kernel_initializer": {"config": {"scale": 1.0, "seed": null, "mode": "fan_avg", "distribution": "uniform"}, "class_name": "VarianceScaling"}, "data_format": "channels_last", "kernel_constraint": null, "dilation_rate": [1, 1], "kernel_regularizer": null, "bias_constraint": null, "padding": "same", "filters": 256, "use_bias": true, "name": "res4d_branch2b", "bias_regularizer": null, "kernel_size": [3, 3], "bias_initializer": {"config": {}, "class_name": "Zeros"}}, "class_name": "Conv2D", "inbound_nodes": [[["activation_32", 0, 0, {}]]]}, {"name": "bn4d_branch2b", "config": {"trainable": false, "moving_mean_initializer": {"config": {}, "class_name": "Zeros"}, "beta_regularizer": null, "center": true, "beta_constraint": null, "scale": true, "momentum": 0.99, "epsilon": 0.001, "name": "bn4d_branch2b", "axis": 3, "gamma_regularizer": null, "gamma_constraint": null, "moving_variance_initializer": {"config": {}, "class_name": "Ones"}, "gamma_initializer": {"config": {}, "class_name": "Ones"}, "beta_initializer": {"config": {}, "class_name": "Zeros"}}, "class_name": "BatchNormalization", "inbound_nodes": [[["res4d_branch2b", 0, 0, {}]]]}, {"name": "activation_33", "config": {"activation": "relu", "trainable": false, "name": "activation_33"}, "class_name": "Activation", "inbound_nodes": [[["bn4d_branch2b", 0, 0, {}]]]}, {"name": "res4d_branch2c", "config": {"activation": "linear", "trainable": false, "activity_regularizer": null, "strides": [1, 1], "kernel_initializer": {"config": {"scale": 1.0, "seed": null, "mode": "fan_avg", "distribution": "uniform"}, "class_name": "VarianceScaling"}, "data_format": "channels_last", "kernel_constraint": null, "dilation_rate": [1, 1], "kernel_regularizer": null, "bias_constraint": null, "padding": "valid", "filters": 1024, "use_bias": true, "name": "res4d_branch2c", "bias_regularizer": null, "kernel_size": [1, 1], "bias_initializer": {"config": {}, "class_name": "Zeros"}}, "class_name": "Conv2D", "inbound_nodes": [[["activation_33", 0, 0, {}]]]}, {"name": "bn4d_branch2c", "config": {"trainable": false, "moving_mean_initializer": {"config": {}, "class_name": "Zeros"}, "beta_regularizer": null, "center": true, "beta_constraint": null, "scale": true, "momentum": 0.99, "epsilon": 0.001, "name": "bn4d_branch2c", "axis": 3, "gamma_regularizer": null, "gamma_constraint": null, "moving_variance_initializer": {"config": {}, "class_name": "Ones"}, "gamma_initializer": {"config": {}, "class_name": "Ones"}, "beta_initializer": {"config": {}, "class_name": "Zeros"}}, "class_name": "BatchNormalization", "inbound_nodes": [[["res4d_branch2c", 0, 0, {}]]]}, {"name": "add_11", "config": {"trainable": false, "name": "add_11"}, "class_name": "Add", "inbound_nodes": [[["bn4d_branch2c", 0, 0, {}], ["activation_31", 0, 0, {}]]]}, {"name": "activation_34", "config": {"activation": "relu", "trainable": false, "name": "activation_34"}, "class_name": "Activation", "inbound_nodes": [[["add_11", 0, 0, {}]]]}, {"name": "res4e_branch2a", "config": {"activation": "linear", "trainable": false, "activity_regularizer": null, "strides": [1, 1], "kernel_initializer": {"config": {"scale": 1.0, "seed": null, "mode": "fan_avg", "distribution": "uniform"}, "class_name": "VarianceScaling"}, "data_format": "channels_last", "kernel_constraint": null, "dilation_rate": [1, 1], "kernel_regularizer": null, "bias_constraint": null, "padding": "valid", "filters": 256, "use_bias": true, "name": "res4e_branch2a", "bias_regularizer": null, "kernel_size": [1, 1], "bias_initializer": {"config": {}, "class_name": "Zeros"}}, "class_name": "Conv2D", "inbound_nodes": [[["activation_34", 0, 0, {}]]]}, {"name": "bn4e_branch2a", "config": {"trainable": false, "moving_mean_initializer": {"config": {}, "class_name": "Zeros"}, "beta_regularizer": null, "center": true, "beta_constraint": null, "scale": true, "momentum": 0.99, "epsilon": 0.001, "name": "bn4e_branch2a", "axis": 3, "gamma_regularizer": null, "gamma_constraint": null, "moving_variance_initializer": {"config": {}, "class_name": "Ones"}, "gamma_initializer": {"config": {}, "class_name": "Ones"}, "beta_initializer": {"config": {}, "class_name": "Zeros"}}, "class_name": "BatchNormalization", "inbound_nodes": [[["res4e_branch2a", 0, 0, {}]]]}, {"name": "activation_35", "config": {"activation": "relu", "trainable": false, "name": "activation_35"}, "class_name": "Activation", "inbound_nodes": [[["bn4e_branch2a", 0, 0, {}]]]}, {"name": "res4e_branch2b", "config": {"activation": "linear", "trainable": false, "activity_regularizer": null, "strides": [1, 1], "kernel_initializer": {"config": {"scale": 1.0, "seed": null, "mode": "fan_avg", "distribution": "uniform"}, "class_name": "VarianceScaling"}, "data_format": "channels_last", "kernel_constraint": null, "dilation_rate": [1, 1], "kernel_regularizer": null, "bias_constraint": null, "padding": "same", "filters": 256, "use_bias": true, "name": "res4e_branch2b", "bias_regularizer": null, "kernel_size": [3, 3], "bias_initializer": {"config": {}, "class_name": "Zeros"}}, "class_name": "Conv2D", "inbound_nodes": [[["activation_35", 0, 0, {}]]]}, {"name": "bn4e_branch2b", "config": {"trainable": false, "moving_mean_initializer": {"config": {}, "class_name": "Zeros"}, "beta_regularizer": null, "center": true, "beta_constraint": null, "scale": true, "momentum": 0.99, "epsilon": 0.001, "name": "bn4e_branch2b", "axis": 3, "gamma_regularizer": null, "gamma_constraint": null, "moving_variance_initializer": {"config": {}, "class_name": "Ones"}, "gamma_initializer": {"config": {}, "class_name": "Ones"}, "beta_initializer": {"config": {}, "class_name": "Zeros"}}, "class_name": "BatchNormalization", "inbound_nodes": [[["res4e_branch2b", 0, 0, {}]]]}, {"name": "activation_36", "config": {"activation": "relu", "trainable": false, "name": "activation_36"}, "class_name": "Activation", "inbound_nodes": [[["bn4e_branch2b", 0, 0, {}]]]}, {"name": "res4e_branch2c", "config": {"activation": "linear", "trainable": false, "activity_regularizer": null, "strides": [1, 1], "kernel_initializer": {"config": {"scale": 1.0, "seed": null, "mode": "fan_avg", "distribution": "uniform"}, "class_name": "VarianceScaling"}, "data_format": "channels_last", "kernel_constraint": null, "dilation_rate": [1, 1], "kernel_regularizer": null, "bias_constraint": null, "padding": "valid", "filters": 1024, "use_bias": true, "name": "res4e_branch2c", "bias_regularizer": null, "kernel_size": [1, 1], "bias_initializer": {"config": {}, "class_name": "Zeros"}}, "class_name": "Conv2D", "inbound_nodes": [[["activation_36", 0, 0, {}]]]}, {"name": "bn4e_branch2c", "config": {"trainable": false, "moving_mean_initializer": {"config": {}, "class_name": "Zeros"}, "beta_regularizer": null, "center": true, "beta_constraint": null, "scale": true, "momentum": 0.99, "epsilon": 0.001, "name": "bn4e_branch2c", "axis": 3, "gamma_regularizer": null, "gamma_constraint": null, "moving_variance_initializer": {"config": {}, "class_name": "Ones"}, "gamma_initializer": {"config": {}, "class_name": "Ones"}, "beta_initializer": {"config": {}, "class_name": "Zeros"}}, "class_name": "BatchNormalization", "inbound_nodes": [[["res4e_branch2c", 0, 0, {}]]]}, {"name": "add_12", "config": {"trainable": false, "name": "add_12"}, "class_name": "Add", "inbound_nodes": [[["bn4e_branch2c", 0, 0, {}], ["activation_34", 0, 0, {}]]]}, {"name": "activation_37", "config": {"activation": "relu", "trainable": false, "name": "activation_37"}, "class_name": "Activation", "inbound_nodes": [[["add_12", 0, 0, {}]]]}, {"name": "res4f_branch2a", "config": {"activation": "linear", "trainable": false, "activity_regularizer": null, "strides": [1, 1], "kernel_initializer": {"config": {"scale": 1.0, "seed": null, "mode": "fan_avg", "distribution": "uniform"}, "class_name": "VarianceScaling"}, "data_format": "channels_last", "kernel_constraint": null, "dilation_rate": [1, 1], "kernel_regularizer": null, "bias_constraint": null, "padding": "valid", "filters": 256, "use_bias": true, "name": "res4f_branch2a", "bias_regularizer": null, "kernel_size": [1, 1], "bias_initializer": {"config": {}, "class_name": "Zeros"}}, "class_name": "Conv2D", "inbound_nodes": [[["activation_37", 0, 0, {}]]]}, {"name": "bn4f_branch2a", "config": {"trainable": false, "moving_mean_initializer": {"config": {}, "class_name": "Zeros"}, "beta_regularizer": null, "center": true, "beta_constraint": null, "scale": true, "momentum": 0.99, "epsilon": 0.001, "name": "bn4f_branch2a", "axis": 3, "gamma_regularizer": null, "gamma_constraint": null, "moving_variance_initializer": {"config": {}, "class_name": "Ones"}, "gamma_initializer": {"config": {}, "class_name": "Ones"}, "beta_initializer": {"config": {}, "class_name": "Zeros"}}, "class_name": "BatchNormalization", "inbound_nodes": [[["res4f_branch2a", 0, 0, {}]]]}, {"name": "activation_38", "config": {"activation": "relu", "trainable": false, "name": "activation_38"}, "class_name": "Activation", "inbound_nodes": [[["bn4f_branch2a", 0, 0, {}]]]}, {"name": "res4f_branch2b", "config": {"activation": "linear", "trainable": false, "activity_regularizer": null, "strides": [1, 1], "kernel_initializer": {"config": {"scale": 1.0, "seed": null, "mode": "fan_avg", "distribution": "uniform"}, "class_name": "VarianceScaling"}, "data_format": "channels_last", "kernel_constraint": null, "dilation_rate": [1, 1], "kernel_regularizer": null, "bias_constraint": null, "padding": "same", "filters": 256, "use_bias": true, "name": "res4f_branch2b", "bias_regularizer": null, "kernel_size": [3, 3], "bias_initializer": {"config": {}, "class_name": "Zeros"}}, "class_name": "Conv2D", "inbound_nodes": [[["activation_38", 0, 0, {}]]]}, {"name": "bn4f_branch2b", "config": {"trainable": false, "moving_mean_initializer": {"config": {}, "class_name": "Zeros"}, "beta_regularizer": null, "center": true, "beta_constraint": null, "scale": true, "momentum": 0.99, "epsilon": 0.001, "name": "bn4f_branch2b", "axis": 3, "gamma_regularizer": null, "gamma_constraint": null, "moving_variance_initializer": {"config": {}, "class_name": "Ones"}, "gamma_initializer": {"config": {}, "class_name": "Ones"}, "beta_initializer": {"config": {}, "class_name": "Zeros"}}, "class_name": "BatchNormalization", "inbound_nodes": [[["res4f_branch2b", 0, 0, {}]]]}, {"name": "activation_39", "config": {"activation": "relu", "trainable": false, "name": "activation_39"}, "class_name": "Activation", "inbound_nodes": [[["bn4f_branch2b", 0, 0, {}]]]}, {"name": "res4f_branch2c", "config": {"activation": "linear", "trainable": false, "activity_regularizer": null, "strides": [1, 1], "kernel_initializer": {"config": {"scale": 1.0, "seed": null, "mode": "fan_avg", "distribution": "uniform"}, "class_name": "VarianceScaling"}, "data_format": "channels_last", "kernel_constraint": null, "dilation_rate": [1, 1], "kernel_regularizer": null, "bias_constraint": null, "padding": "valid", "filters": 1024, "use_bias": true, "name": "res4f_branch2c", "bias_regularizer": null, "kernel_size": [1, 1], "bias_initializer": {"config": {}, "class_name": "Zeros"}}, "class_name": "Conv2D", "inbound_nodes": [[["activation_39", 0, 0, {}]]]}, {"name": "bn4f_branch2c", "config": {"trainable": false, "moving_mean_initializer": {"config": {}, "class_name": "Zeros"}, "beta_regularizer": null, "center": true, "beta_constraint": null, "scale": true, "momentum": 0.99, "epsilon": 0.001, "name": "bn4f_branch2c", "axis": 3, "gamma_regularizer": null, "gamma_constraint": null, "moving_variance_initializer": {"config": {}, "class_name": "Ones"}, "gamma_initializer": {"config": {}, "class_name": "Ones"}, "beta_initializer": {"config": {}, "class_name": "Zeros"}}, "class_name": "BatchNormalization", "inbound_nodes": [[["res4f_branch2c", 0, 0, {}]]]}, {"name": "add_13", "config": {"trainable": false, "name": "add_13"}, "class_name": "Add", "inbound_nodes": [[["bn4f_branch2c", 0, 0, {}], ["activation_37", 0, 0, {}]]]}, {"name": "activation_40", "config": {"activation": "relu", "trainable": false, "name": "activation_40"}, "class_name": "Activation", "inbound_nodes": [[["add_13", 0, 0, {}]]]}, {"name": "res5a_branch2a", "config": {"activation": "linear", "trainable": false, "activity_regularizer": null, "strides": [2, 2], "kernel_initializer": {"config": {"scale": 1.0, "seed": null, "mode": "fan_avg", "distribution": "uniform"}, "class_name": "VarianceScaling"}, "data_format": "channels_last", "kernel_constraint": null, "dilation_rate": [1, 1], "kernel_regularizer": null, "bias_constraint": null, "padding": "valid", "filters": 512, "use_bias": true, "name": "res5a_branch2a", "bias_regularizer": null, "kernel_size": [1, 1], "bias_initializer": {"config": {}, "class_name": "Zeros"}}, "class_name": "Conv2D", "inbound_nodes": [[["activation_40", 0, 0, {}]]]}, {"name": "bn5a_branch2a", "config": {"trainable": false, "moving_mean_initializer": {"config": {}, "class_name": "Zeros"}, "beta_regularizer": null, "center": true, "beta_constraint": null, "scale": true, "momentum": 0.99, "epsilon": 0.001, "name": "bn5a_branch2a", "axis": 3, "gamma_regularizer": null, "gamma_constraint": null, "moving_variance_initializer": {"config": {}, "class_name": "Ones"}, "gamma_initializer": {"config": {}, "class_name": "Ones"}, "beta_initializer": {"config": {}, "class_name": "Zeros"}}, "class_name": "BatchNormalization", "inbound_nodes": [[["res5a_branch2a", 0, 0, {}]]]}, {"name": "activation_41", "config": {"activation": "relu", "trainable": false, "name": "activation_41"}, "class_name": "Activation", "inbound_nodes": [[["bn5a_branch2a", 0, 0, {}]]]}, {"name": "res5a_branch2b", "config": {"activation": "linear", "trainable": false, "activity_regularizer": null, "strides": [1, 1], "kernel_initializer": {"config": {"scale": 1.0, "seed": null, "mode": "fan_avg", "distribution": "uniform"}, "class_name": "VarianceScaling"}, "data_format": "channels_last", "kernel_constraint": null, "dilation_rate": [1, 1], "kernel_regularizer": null, "bias_constraint": null, "padding": "same", "filters": 512, "use_bias": true, "name": "res5a_branch2b", "bias_regularizer": null, "kernel_size": [3, 3], "bias_initializer": {"config": {}, "class_name": "Zeros"}}, "class_name": "Conv2D", "inbound_nodes": [[["activation_41", 0, 0, {}]]]}, {"name": "bn5a_branch2b", "config": {"trainable": false, "moving_mean_initializer": {"config": {}, "class_name": "Zeros"}, "beta_regularizer": null, "center": true, "beta_constraint": null, "scale": true, "momentum": 0.99, "epsilon": 0.001, "name": "bn5a_branch2b", "axis": 3, "gamma_regularizer": null, "gamma_constraint": null, "moving_variance_initializer": {"config": {}, "class_name": "Ones"}, "gamma_initializer": {"config": {}, "class_name": "Ones"}, "beta_initializer": {"config": {}, "class_name": "Zeros"}}, "class_name": "BatchNormalization", "inbound_nodes": [[["res5a_branch2b", 0, 0, {}]]]}, {"name": "activation_42", "config": {"activation": "relu", "trainable": false, "name": "activation_42"}, "class_name": "Activation", "inbound_nodes": [[["bn5a_branch2b", 0, 0, {}]]]}, {"name": "res5a_branch2c", "config": {"activation": "linear", "trainable": false, "activity_regularizer": null, "strides": [1, 1], "kernel_initializer": {"config": {"scale": 1.0, "seed": null, "mode": "fan_avg", "distribution": "uniform"}, "class_name": "VarianceScaling"}, "data_format": "channels_last", "kernel_constraint": null, "dilation_rate": [1, 1], "kernel_regularizer": null, "bias_constraint": null, "padding": "valid", "filters": 2048, "use_bias": true, "name": "res5a_branch2c", "bias_regularizer": null, "kernel_size": [1, 1], "bias_initializer": {"config": {}, "class_name": "Zeros"}}, "class_name": "Conv2D", "inbound_nodes": [[["activation_42", 0, 0, {}]]]}, {"name": "res5a_branch1", "config": {"activation": "linear", "trainable": false, "activity_regularizer": null, "strides": [2, 2], "kernel_initializer": {"config": {"scale": 1.0, "seed": null, "mode": "fan_avg", "distribution": "uniform"}, "class_name": "VarianceScaling"}, "data_format": "channels_last", "kernel_constraint": null, "dilation_rate": [1, 1], "kernel_regularizer": null, "bias_constraint": null, "padding": "valid", "filters": 2048, "use_bias": true, "name": "res5a_branch1", "bias_regularizer": null, "kernel_size": [1, 1], "bias_initializer": {"config": {}, "class_name": "Zeros"}}, "class_name": "Conv2D", "inbound_nodes": [[["activation_40", 0, 0, {}]]]}, {"name": "bn5a_branch2c", "config": {"trainable": false, "moving_mean_initializer": {"config": {}, "class_name": "Zeros"}, "beta_regularizer": null, "center": true, "beta_constraint": null, "scale": true, "momentum": 0.99, "epsilon": 0.001, "name": "bn5a_branch2c", "axis": 3, "gamma_regularizer": null, "gamma_constraint": null, "moving_variance_initializer": {"config": {}, "class_name": "Ones"}, "gamma_initializer": {"config": {}, "class_name": "Ones"}, "beta_initializer": {"config": {}, "class_name": "Zeros"}}, "class_name": "BatchNormalization", "inbound_nodes": [[["res5a_branch2c", 0, 0, {}]]]}, {"name": "bn5a_branch1", "config": {"trainable": false, "moving_mean_initializer": {"config": {}, "class_name": "Zeros"}, "beta_regularizer": null, "center": true, "beta_constraint": null, "scale": true, "momentum": 0.99, "epsilon": 0.001, "name": "bn5a_branch1", "axis": 3, "gamma_regularizer": null, "gamma_constraint": null, "moving_variance_initializer": {"config": {}, "class_name": "Ones"}, "gamma_initializer": {"config": {}, "class_name": "Ones"}, "beta_initializer": {"config": {}, "class_name": "Zeros"}}, "class_name": "BatchNormalization", "inbound_nodes": [[["res5a_branch1", 0, 0, {}]]]}, {"name": "add_14", "config": {"trainable": false, "name": "add_14"}, "class_name": "Add", "inbound_nodes": [[["bn5a_branch2c", 0, 0, {}], ["bn5a_branch1", 0, 0, {}]]]}, {"name": "activation_43", "config": {"activation": "relu", "trainable": false, "name": "activation_43"}, "class_name": "Activation", "inbound_nodes": [[["add_14", 0, 0, {}]]]}, {"name": "res5b_branch2a", "config": {"activation": "linear", "trainable": false, "activity_regularizer": null, "strides": [1, 1], "kernel_initializer": {"config": {"scale": 1.0, "seed": null, "mode": "fan_avg", "distribution": "uniform"}, "class_name": "VarianceScaling"}, "data_format": "channels_last", "kernel_constraint": null, "dilation_rate": [1, 1], "kernel_regularizer": null, "bias_constraint": null, "padding": "valid", "filters": 512, "use_bias": true, "name": "res5b_branch2a", "bias_regularizer": null, "kernel_size": [1, 1], "bias_initializer": {"config": {}, "class_name": "Zeros"}}, "class_name": "Conv2D", "inbound_nodes": [[["activation_43", 0, 0, {}]]]}, {"name": "bn5b_branch2a", "config": {"trainable": false, "moving_mean_initializer": {"config": {}, "class_name": "Zeros"}, "beta_regularizer": null, "center": true, "beta_constraint": null, "scale": true, "momentum": 0.99, "epsilon": 0.001, "name": "bn5b_branch2a", "axis": 3, "gamma_regularizer": null, "gamma_constraint": null, "moving_variance_initializer": {"config": {}, "class_name": "Ones"}, "gamma_initializer": {"config": {}, "class_name": "Ones"}, "beta_initializer": {"config": {}, "class_name": "Zeros"}}, "class_name": "BatchNormalization", "inbound_nodes": [[["res5b_branch2a", 0, 0, {}]]]}, {"name": "activation_44", "config": {"activation": "relu", "trainable": false, "name": "activation_44"}, "class_name": "Activation", "inbound_nodes": [[["bn5b_branch2a", 0, 0, {}]]]}, {"name": "res5b_branch2b", "config": {"activation": "linear", "trainable": false, "activity_regularizer": null, "strides": [1, 1], "kernel_initializer": {"config": {"scale": 1.0, "seed": null, "mode": "fan_avg", "distribution": "uniform"}, "class_name": "VarianceScaling"}, "data_format": "channels_last", "kernel_constraint": null, "dilation_rate": [1, 1], "kernel_regularizer": null, "bias_constraint": null, "padding": "same", "filters": 512, "use_bias": true, "name": "res5b_branch2b", "bias_regularizer": null, "kernel_size": [3, 3], "bias_initializer": {"config": {}, "class_name": "Zeros"}}, "class_name": "Conv2D", "inbound_nodes": [[["activation_44", 0, 0, {}]]]}, {"name": "bn5b_branch2b", "config": {"trainable": false, "moving_mean_initializer": {"config": {}, "class_name": "Zeros"}, "beta_regularizer": null, "center": true, "beta_constraint": null, "scale": true, "momentum": 0.99, "epsilon": 0.001, "name": "bn5b_branch2b", "axis": 3, "gamma_regularizer": null, "gamma_constraint": null, "moving_variance_initializer": {"config": {}, "class_name": "Ones"}, "gamma_initializer": {"config": {}, "class_name": "Ones"}, "beta_initializer": {"config": {}, "class_name": "Zeros"}}, "class_name": "BatchNormalization", "inbound_nodes": [[["res5b_branch2b", 0, 0, {}]]]}, {"name": "activation_45", "config": {"activation": "relu", "trainable": false, "name": "activation_45"}, "class_name": "Activation", "inbound_nodes": [[["bn5b_branch2b", 0, 0, {}]]]}, {"name": "res5b_branch2c", "config": {"activation": "linear", "trainable": false, "activity_regularizer": null, "strides": [1, 1], "kernel_initializer": {"config": {"scale": 1.0, "seed": null, "mode": "fan_avg", "distribution": "uniform"}, "class_name": "VarianceScaling"}, "data_format": "channels_last", "kernel_constraint": null, "dilation_rate": [1, 1], "kernel_regularizer": null, "bias_constraint": null, "padding": "valid", "filters": 2048, "use_bias": true, "name": "res5b_branch2c", "bias_regularizer": null, "kernel_size": [1, 1], "bias_initializer": {"config": {}, "class_name": "Zeros"}}, "class_name": "Conv2D", "inbound_nodes": [[["activation_45", 0, 0, {}]]]}, {"name": "bn5b_branch2c", "config": {"trainable": false, "moving_mean_initializer": {"config": {}, "class_name": "Zeros"}, "beta_regularizer": null, "center": true, "beta_constraint": null, "scale": true, "momentum": 0.99, "epsilon": 0.001, "name": "bn5b_branch2c", "axis": 3, "gamma_regularizer": null, "gamma_constraint": null, "moving_variance_initializer": {"config": {}, "class_name": "Ones"}, "gamma_initializer": {"config": {}, "class_name": "Ones"}, "beta_initializer": {"config": {}, "class_name": "Zeros"}}, "class_name": "BatchNormalization", "inbound_nodes": [[["res5b_branch2c", 0, 0, {}]]]}, {"name": "add_15", "config": {"trainable": false, "name": "add_15"}, "class_name": "Add", "inbound_nodes": [[["bn5b_branch2c", 0, 0, {}], ["activation_43", 0, 0, {}]]]}, {"name": "activation_46", "config": {"activation": "relu", "trainable": false, "name": "activation_46"}, "class_name": "Activation", "inbound_nodes": [[["add_15", 0, 0, {}]]]}, {"name": "res5c_branch2a", "config": {"activation": "linear", "trainable": false, "activity_regularizer": null, "strides": [1, 1], "kernel_initializer": {"config": {"scale": 1.0, "seed": null, "mode": "fan_avg", "distribution": "uniform"}, "class_name": "VarianceScaling"}, "data_format": "channels_last", "kernel_constraint": null, "dilation_rate": [1, 1], "kernel_regularizer": null, "bias_constraint": null, "padding": "valid", "filters": 512, "use_bias": true, "name": "res5c_branch2a", "bias_regularizer": null, "kernel_size": [1, 1], "bias_initializer": {"config": {}, "class_name": "Zeros"}}, "class_name": "Conv2D", "inbound_nodes": [[["activation_46", 0, 0, {}]]]}, {"name": "bn5c_branch2a", "config": {"trainable": false, "moving_mean_initializer": {"config": {}, "class_name": "Zeros"}, "beta_regularizer": null, "center": true, "beta_constraint": null, "scale": true, "momentum": 0.99, "epsilon": 0.001, "name": "bn5c_branch2a", "axis": 3, "gamma_regularizer": null, "gamma_constraint": null, "moving_variance_initializer": {"config": {}, "class_name": "Ones"}, "gamma_initializer": {"config": {}, "class_name": "Ones"}, "beta_initializer": {"config": {}, "class_name": "Zeros"}}, "class_name": "BatchNormalization", "inbound_nodes": [[["res5c_branch2a", 0, 0, {}]]]}, {"name": "activation_47", "config": {"activation": "relu", "trainable": false, "name": "activation_47"}, "class_name": "Activation", "inbound_nodes": [[["bn5c_branch2a", 0, 0, {}]]]}, {"name": "res5c_branch2b", "config": {"activation": "linear", "trainable": false, "activity_regularizer": null, "strides": [1, 1], "kernel_initializer": {"config": {"scale": 1.0, "seed": null, "mode": "fan_avg", "distribution": "uniform"}, "class_name": "VarianceScaling"}, "data_format": "channels_last", "kernel_constraint": null, "dilation_rate": [1, 1], "kernel_regularizer": null, "bias_constraint": null, "padding": "same", "filters": 512, "use_bias": true, "name": "res5c_branch2b", "bias_regularizer": null, "kernel_size": [3, 3], "bias_initializer": {"config": {}, "class_name": "Zeros"}}, "class_name": "Conv2D", "inbound_nodes": [[["activation_47", 0, 0, {}]]]}, {"name": "bn5c_branch2b", "config": {"trainable": false, "moving_mean_initializer": {"config": {}, "class_name": "Zeros"}, "beta_regularizer": null, "center": true, "beta_constraint": null, "scale": true, "momentum": 0.99, "epsilon": 0.001, "name": "bn5c_branch2b", "axis": 3, "gamma_regularizer": null, "gamma_constraint": null, "moving_variance_initializer": {"config": {}, "class_name": "Ones"}, "gamma_initializer": {"config": {}, "class_name": "Ones"}, "beta_initializer": {"config": {}, "class_name": "Zeros"}}, "class_name": "BatchNormalization", "inbound_nodes": [[["res5c_branch2b", 0, 0, {}]]]}, {"name": "activation_48", "config": {"activation": "relu", "trainable": false, "name": "activation_48"}, "class_name": "Activation", "inbound_nodes": [[["bn5c_branch2b", 0, 0, {}]]]}, {"name": "res5c_branch2c", "config": {"activation": "linear", "trainable": false, "activity_regularizer": null, "strides": [1, 1], "kernel_initializer": {"config": {"scale": 1.0, "seed": null, "mode": "fan_avg", "distribution": "uniform"}, "class_name": "VarianceScaling"}, "data_format": "channels_last", "kernel_constraint": null, "dilation_rate": [1, 1], "kernel_regularizer": null, "bias_constraint": null, "padding": "valid", "filters": 2048, "use_bias": true, "name": "res5c_branch2c", "bias_regularizer": null, "kernel_size": [1, 1], "bias_initializer": {"config": {}, "class_name": "Zeros"}}, "class_name": "Conv2D", "inbound_nodes": [[["activation_48", 0, 0, {}]]]}, {"name": "bn5c_branch2c", "config": {"trainable": true, "moving_mean_initializer": {"config": {}, "class_name": "Zeros"}, "beta_regularizer": null, "center": true, "beta_constraint": null, "scale": true, "momentum": 0.99, "epsilon": 0.001, "name": "bn5c_branch2c", "axis": 3, "gamma_regularizer": null, "gamma_constraint": null, "moving_variance_initializer": {"config": {}, "class_name": "Ones"}, "gamma_initializer": {"config": {}, "class_name": "Ones"}, "beta_initializer": {"config": {}, "class_name": "Zeros"}}, "class_name": "BatchNormalization", "inbound_nodes": [[["res5c_branch2c", 0, 0, {}]]]}, {"name": "add_16", "config": {"trainable": true, "name": "add_16"}, "class_name": "Add", "inbound_nodes": [[["bn5c_branch2c", 0, 0, {}], ["activation_46", 0, 0, {}]]]}, {"name": "activation_49", "config": {"activation": "relu", "trainable": true, "name": "activation_49"}, "class_name": "Activation", "inbound_nodes": [[["add_16", 0, 0, {}]]]}, {"name": "avg_pool", "config": {"padding": "valid", "trainable": true, "strides": [7, 7], "name": "avg_pool", "data_format": "channels_last", "pool_size": [7, 7]}, "class_name": "AveragePooling2D", "inbound_nodes": [[["activation_49", 0, 0, {}]]]}, {"name": "global_average_pooling2d_2", "config": {"trainable": true, "name": "global_average_pooling2d_2", "data_format": "channels_last"}, "class_name": "GlobalAveragePooling2D", "inbound_nodes": [[["avg_pool", 0, 0, {}]]]}, {"name": "fc-1", "config": {"activation": "relu", "trainable": true, "activity_regularizer": null, "use_bias": true, "kernel_initializer": {"config": {"scale": 1.0, "seed": null, "mode": "fan_avg", "distribution": "uniform"}, "class_name": "VarianceScaling"}, "kernel_constraint": null, "bias_constraint": null, "kernel_regularizer": null, "units": 512, "name": "fc-1", "bias_regularizer": null, "bias_initializer": {"config": {}, "class_name": "Zeros"}}, "class_name": "Dense", "inbound_nodes": [[["global_average_pooling2d_2", 0, 0, {}]]]}, {"name": "dropout_3", "config": {"trainable": true, "rate": 0.5, "name": "dropout_3", "seed": null, "noise_shape": null}, "class_name": "Dropout", "inbound_nodes": [[["fc-1", 0, 0, {}]]]}, {"name": "fc-2", "config": {"activation": "relu", "trainable": true, "activity_regularizer": null, "use_bias": true, "kernel_initializer": {"config": {"scale": 1.0, "seed": null, "mode": "fan_avg", "distribution": "uniform"}, "class_name": "VarianceScaling"}, "kernel_constraint": null, "bias_constraint": null, "kernel_regularizer": null, "units": 256, "name": "fc-2", "bias_regularizer": null, "bias_initializer": {"config": {}, "class_name": "Zeros"}}, "class_name": "Dense", "inbound_nodes": [[["dropout_3", 0, 0, {}]]]}, {"name": "dropout_4", "config": {"trainable": true, "rate": 0.5, "name": "dropout_4", "seed": null, "noise_shape": null}, "class_name": "Dropout", "inbound_nodes": [[["fc-2", 0, 0, {}]]]}, {"name": "output_layer", "config": {"activation": "softmax", "trainable": true, "activity_regularizer": null, "use_bias": true, "kernel_initializer": {"config": {"scale": 1.0, "seed": null, "mode": "fan_avg", "distribution": "uniform"}, "class_name": "VarianceScaling"}, "kernel_constraint": null, "bias_constraint": null, "kernel_regularizer": null, "units": 5, "name": "output_layer", "bias_regularizer": null, "bias_initializer": {"config": {}, "class_name": "Zeros"}}, "class_name": "Dense", "inbound_nodes": [[["dropout_4", 0, 0, {}]]]}], "name": "model_2", "input_layers": [["input_1", 0, 0]], "output_layers": [["output_layer", 0, 0]]}, "class_name": "Model", "keras_version": "2.1.2"}