{"keras_version": "2.1.2", "backend": "tensorflow", "class_name": "Model", "config": {"input_layers": [["input_1", 0, 0]], "layers": [{"inbound_nodes": [], "name": "input_1", "class_name": "InputLayer", "config": {"sparse": false, "dtype": "float32", "name": "input_1", "batch_input_shape": [null, null, null, 3]}}, {"inbound_nodes": [[["input_1", 0, 0, {}]]], "name": "zero_padding2d_1", "class_name": "ZeroPadding2D", "config": {"data_format": "channels_last", "name": "zero_padding2d_1", "padding": [[3, 3], [3, 3]], "trainable": false}}, {"inbound_nodes": [[["zero_padding2d_1", 0, 0, {}]]], "name": "conv1", "class_name": "Conv2D", "config": {"bias_constraint": null, "kernel_size": [7, 7], "filters": 64, "kernel_initializer": {"class_name": "VarianceScaling", "config": {"seed": null, "scale": 1.0, "distribution": "uniform", "mode": "fan_avg"}}, "data_format": "channels_last", "activation": "linear", "strides": [2, 2], "trainable": false, "bias_initializer": {"class_name": "Zeros", "config": {}}, "activity_regularizer": null, "name": "conv1", "dilation_rate": [1, 1], "kernel_constraint": null, "use_bias": true, "kernel_regularizer": null, "padding": "valid", "bias_regularizer": null}}, {"inbound_nodes": [[["conv1", 0, 0, {}]]], "name": "bn_conv1", "class_name": "BatchNormalization", "config": {"gamma_initializer": {"class_name": "Ones", "config": {}}, "beta_initializer": {"class_name": "Zeros", "config": {}}, "gamma_constraint": null, "momentum": 0.99, "beta_regularizer": null, "moving_variance_initializer": {"class_name": "Ones", "config": {}}, "gamma_regularizer": null, "scale": true, "beta_constraint": null, "epsilon": 0.001, "name": "bn_conv1", "axis": 3, "moving_mean_initializer": {"class_name": "Zeros", "config": {}}, "center": true, "trainable": false}}, {"inbound_nodes": [[["bn_conv1", 0, 0, {}]]], "name": "activation_1", "class_name": "Activation", "config": {"activation": "relu", "name": "activation_1", "trainable": false}}, {"inbound_nodes": [[["activation_1", 0, 0, {}]]], "name": "max_pooling2d_1", "class_name": "MaxPooling2D", "config": {"name": "max_pooling2d_1", "pool_size": [3, 3], "data_format": "channels_last", "strides": [2, 2], "padding": "valid", "trainable": false}}, {"inbound_nodes": [[["max_pooling2d_1", 0, 0, {}]]], "name": "res2a_branch2a", "class_name": "Conv2D", "config": {"bias_constraint": null, "kernel_size": [1, 1], "filters": 64, "kernel_initializer": {"class_name": "VarianceScaling", "config": {"seed": null, "scale": 1.0, "distribution": "uniform", "mode": "fan_avg"}}, "data_format": "channels_last", "activation": "linear", "strides": [1, 1], "trainable": false, "bias_initializer": {"class_name": "Zeros", "config": {}}, "activity_regularizer": null, "name": "res2a_branch2a", "dilation_rate": [1, 1], "kernel_constraint": null, "use_bias": true, "kernel_regularizer": null, "padding": "valid", "bias_regularizer": null}}, {"inbound_nodes": [[["res2a_branch2a", 0, 0, {}]]], "name": "bn2a_branch2a", "class_name": "BatchNormalization", "config": {"gamma_initializer": {"class_name": "Ones", "config": {}}, "beta_initializer": {"class_name": "Zeros", "config": {}}, "gamma_constraint": null, "momentum": 0.99, "beta_regularizer": null, "moving_variance_initializer": {"class_name": "Ones", "config": {}}, "gamma_regularizer": null, "scale": true, "beta_constraint": null, "epsilon": 0.001, "name": "bn2a_branch2a", "axis": 3, "moving_mean_initializer": {"class_name": "Zeros", "config": {}}, "center": true, "trainable": false}}, {"inbound_nodes": [[["bn2a_branch2a", 0, 0, {}]]], "name": "activation_2", "class_name": "Activation", "config": {"activation": "relu", "name": "activation_2", "trainable": false}}, {"inbound_nodes": [[["activation_2", 0, 0, {}]]], "name": "res2a_branch2b", "class_name": "Conv2D", "config": {"bias_constraint": null, "kernel_size": [3, 3], "filters": 64, "kernel_initializer": {"class_name": "VarianceScaling", "config": {"seed": null, "scale": 1.0, "distribution": "uniform", "mode": "fan_avg"}}, "data_format": "channels_last", "activation": "linear", "strides": [1, 1], "trainable": false, "bias_initializer": {"class_name": "Zeros", "config": {}}, "activity_regularizer": null, "name": "res2a_branch2b", "dilation_rate": [1, 1], "kernel_constraint": null, "use_bias": true, "kernel_regularizer": null, "padding": "same", "bias_regularizer": null}}, {"inbound_nodes": [[["res2a_branch2b", 0, 0, {}]]], "name": "bn2a_branch2b", "class_name": "BatchNormalization", "config": {"gamma_initializer": {"class_name": "Ones", "config": {}}, "beta_initializer": {"class_name": "Zeros", "config": {}}, "gamma_constraint": null, "momentum": 0.99, "beta_regularizer": null, "moving_variance_initializer": {"class_name": "Ones", "config": {}}, "gamma_regularizer": null, "scale": true, "beta_constraint": null, "epsilon": 0.001, "name": "bn2a_branch2b", "axis": 3, "moving_mean_initializer": {"class_name": "Zeros", "config": {}}, "center": true, "trainable": false}}, {"inbound_nodes": [[["bn2a_branch2b", 0, 0, {}]]], "name": "activation_3", "class_name": "Activation", "config": {"activation": "relu", "name": "activation_3", "trainable": false}}, {"inbound_nodes": [[["activation_3", 0, 0, {}]]], "name": "res2a_branch2c", "class_name": "Conv2D", "config": {"bias_constraint": null, "kernel_size": [1, 1], "filters": 256, "kernel_initializer": {"class_name": "VarianceScaling", "config": {"seed": null, "scale": 1.0, "distribution": "uniform", "mode": "fan_avg"}}, "data_format": "channels_last", "activation": "linear", "strides": [1, 1], "trainable": false, "bias_initializer": {"class_name": "Zeros", "config": {}}, "activity_regularizer": null, "name": "res2a_branch2c", "dilation_rate": [1, 1], "kernel_constraint": null, "use_bias": true, "kernel_regularizer": null, "padding": "valid", "bias_regularizer": null}}, {"inbound_nodes": [[["max_pooling2d_1", 0, 0, {}]]], "name": "res2a_branch1", "class_name": "Conv2D", "config": {"bias_constraint": null, "kernel_size": [1, 1], "filters": 256, "kernel_initializer": {"class_name": "VarianceScaling", "config": {"seed": null, "scale": 1.0, "distribution": "uniform", "mode": "fan_avg"}}, "data_format": "channels_last", "activation": "linear", "strides": [1, 1], "trainable": false, "bias_initializer": {"class_name": "Zeros", "config": {}}, "activity_regularizer": null, "name": "res2a_branch1", "dilation_rate": [1, 1], "kernel_constraint": null, "use_bias": true, "kernel_regularizer": null, "padding": "valid", "bias_regularizer": null}}, {"inbound_nodes": [[["res2a_branch2c", 0, 0, {}]]], "name": "bn2a_branch2c", "class_name": "BatchNormalization", "config": {"gamma_initializer": {"class_name": "Ones", "config": {}}, "beta_initializer": {"class_name": "Zeros", "config": {}}, "gamma_constraint": null, "momentum": 0.99, "beta_regularizer": null, "moving_variance_initializer": {"class_name": "Ones", "config": {}}, "gamma_regularizer": null, "scale": true, "beta_constraint": null, "epsilon": 0.001, "name": "bn2a_branch2c", "axis": 3, "moving_mean_initializer": {"class_name": "Zeros", "config": {}}, "center": true, "trainable": false}}, {"inbound_nodes": [[["res2a_branch1", 0, 0, {}]]], "name": "bn2a_branch1", "class_name": "BatchNormalization", "config": {"gamma_initializer": {"class_name": "Ones", "config": {}}, "beta_initializer": {"class_name": "Zeros", "config": {}}, "gamma_constraint": null, "momentum": 0.99, "beta_regularizer": null, "moving_variance_initializer": {"class_name": "Ones", "config": {}}, "gamma_regularizer": null, "scale": true, "beta_constraint": null, "epsilon": 0.001, "name": "bn2a_branch1", "axis": 3, "moving_mean_initializer": {"class_name": "Zeros", "config": {}}, "center": true, "trainable": false}}, {"inbound_nodes": [[["bn2a_branch2c", 0, 0, {}], ["bn2a_branch1", 0, 0, {}]]], "name": "add_1", "class_name": "Add", "config": {"name": "add_1", "trainable": false}}, {"inbound_nodes": [[["add_1", 0, 0, {}]]], "name": "activation_4", "class_name": "Activation", "config": {"activation": "relu", "name": "activation_4", "trainable": false}}, {"inbound_nodes": [[["activation_4", 0, 0, {}]]], "name": "res2b_branch2a", "class_name": "Conv2D", "config": {"bias_constraint": null, "kernel_size": [1, 1], "filters": 64, "kernel_initializer": {"class_name": "VarianceScaling", "config": {"seed": null, "scale": 1.0, "distribution": "uniform", "mode": "fan_avg"}}, "data_format": "channels_last", "activation": "linear", "strides": [1, 1], "trainable": false, "bias_initializer": {"class_name": "Zeros", "config": {}}, "activity_regularizer": null, "name": "res2b_branch2a", "dilation_rate": [1, 1], "kernel_constraint": null, "use_bias": true, "kernel_regularizer": null, "padding": "valid", "bias_regularizer": null}}, {"inbound_nodes": [[["res2b_branch2a", 0, 0, {}]]], "name": "bn2b_branch2a", "class_name": "BatchNormalization", "config": {"gamma_initializer": {"class_name": "Ones", "config": {}}, "beta_initializer": {"class_name": "Zeros", "config": {}}, "gamma_constraint": null, "momentum": 0.99, "beta_regularizer": null, "moving_variance_initializer": {"class_name": "Ones", "config": {}}, "gamma_regularizer": null, "scale": true, "beta_constraint": null, "epsilon": 0.001, "name": "bn2b_branch2a", "axis": 3, "moving_mean_initializer": {"class_name": "Zeros", "config": {}}, "center": true, "trainable": false}}, {"inbound_nodes": [[["bn2b_branch2a", 0, 0, {}]]], "name": "activation_5", "class_name": "Activation", "config": {"activation": "relu", "name": "activation_5", "trainable": false}}, {"inbound_nodes": [[["activation_5", 0, 0, {}]]], "name": "res2b_branch2b", "class_name": "Conv2D", "config": {"bias_constraint": null, "kernel_size": [3, 3], "filters": 64, "kernel_initializer": {"class_name": "VarianceScaling", "config": {"seed": null, "scale": 1.0, "distribution": "uniform", "mode": "fan_avg"}}, "data_format": "channels_last", "activation": "linear", "strides": [1, 1], "trainable": false, "bias_initializer": {"class_name": "Zeros", "config": {}}, "activity_regularizer": null, "name": "res2b_branch2b", "dilation_rate": [1, 1], "kernel_constraint": null, "use_bias": true, "kernel_regularizer": null, "padding": "same", "bias_regularizer": null}}, {"inbound_nodes": [[["res2b_branch2b", 0, 0, {}]]], "name": "bn2b_branch2b", "class_name": "BatchNormalization", "config": {"gamma_initializer": {"class_name": "Ones", "config": {}}, "beta_initializer": {"class_name": "Zeros", "config": {}}, "gamma_constraint": null, "momentum": 0.99, "beta_regularizer": null, "moving_variance_initializer": {"class_name": "Ones", "config": {}}, "gamma_regularizer": null, "scale": true, "beta_constraint": null, "epsilon": 0.001, "name": "bn2b_branch2b", "axis": 3, "moving_mean_initializer": {"class_name": "Zeros", "config": {}}, "center": true, "trainable": false}}, {"inbound_nodes": [[["bn2b_branch2b", 0, 0, {}]]], "name": "activation_6", "class_name": "Activation", "config": {"activation": "relu", "name": "activation_6", "trainable": false}}, {"inbound_nodes": [[["activation_6", 0, 0, {}]]], "name": "res2b_branch2c", "class_name": "Conv2D", "config": {"bias_constraint": null, "kernel_size": [1, 1], "filters": 256, "kernel_initializer": {"class_name": "VarianceScaling", "config": {"seed": null, "scale": 1.0, "distribution": "uniform", "mode": "fan_avg"}}, "data_format": "channels_last", "activation": "linear", "strides": [1, 1], "trainable": false, "bias_initializer": {"class_name": "Zeros", "config": {}}, "activity_regularizer": null, "name": "res2b_branch2c", "dilation_rate": [1, 1], "kernel_constraint": null, "use_bias": true, "kernel_regularizer": null, "padding": "valid", "bias_regularizer": null}}, {"inbound_nodes": [[["res2b_branch2c", 0, 0, {}]]], "name": "bn2b_branch2c", "class_name": "BatchNormalization", "config": {"gamma_initializer": {"class_name": "Ones", "config": {}}, "beta_initializer": {"class_name": "Zeros", "config": {}}, "gamma_constraint": null, "momentum": 0.99, "beta_regularizer": null, "moving_variance_initializer": {"class_name": "Ones", "config": {}}, "gamma_regularizer": null, "scale": true, "beta_constraint": null, "epsilon": 0.001, "name": "bn2b_branch2c", "axis": 3, "moving_mean_initializer": {"class_name": "Zeros", "config": {}}, "center": true, "trainable": false}}, {"inbound_nodes": [[["bn2b_branch2c", 0, 0, {}], ["activation_4", 0, 0, {}]]], "name": "add_2", "class_name": "Add", "config": {"name": "add_2", "trainable": false}}, {"inbound_nodes": [[["add_2", 0, 0, {}]]], "name": "activation_7", "class_name": "Activation", "config": {"activation": "relu", "name": "activation_7", "trainable": false}}, {"inbound_nodes": [[["activation_7", 0, 0, {}]]], "name": "res2c_branch2a", "class_name": "Conv2D", "config": {"bias_constraint": null, "kernel_size": [1, 1], "filters": 64, "kernel_initializer": {"class_name": "VarianceScaling", "config": {"seed": null, "scale": 1.0, "distribution": "uniform", "mode": "fan_avg"}}, "data_format": "channels_last", "activation": "linear", "strides": [1, 1], "trainable": false, "bias_initializer": {"class_name": "Zeros", "config": {}}, "activity_regularizer": null, "name": "res2c_branch2a", "dilation_rate": [1, 1], "kernel_constraint": null, "use_bias": true, "kernel_regularizer": null, "padding": "valid", "bias_regularizer": null}}, {"inbound_nodes": [[["res2c_branch2a", 0, 0, {}]]], "name": "bn2c_branch2a", "class_name": "BatchNormalization", "config": {"gamma_initializer": {"class_name": "Ones", "config": {}}, "beta_initializer": {"class_name": "Zeros", "config": {}}, "gamma_constraint": null, "momentum": 0.99, "beta_regularizer": null, "moving_variance_initializer": {"class_name": "Ones", "config": {}}, "gamma_regularizer": null, "scale": true, "beta_constraint": null, "epsilon": 0.001, "name": "bn2c_branch2a", "axis": 3, "moving_mean_initializer": {"class_name": "Zeros", "config": {}}, "center": true, "trainable": false}}, {"inbound_nodes": [[["bn2c_branch2a", 0, 0, {}]]], "name": "activation_8", "class_name": "Activation", "config": {"activation": "relu", "name": "activation_8", "trainable": false}}, {"inbound_nodes": [[["activation_8", 0, 0, {}]]], "name": "res2c_branch2b", "class_name": "Conv2D", "config": {"bias_constraint": null, "kernel_size": [3, 3], "filters": 64, "kernel_initializer": {"class_name": "VarianceScaling", "config": {"seed": null, "scale": 1.0, "distribution": "uniform", "mode": "fan_avg"}}, "data_format": "channels_last", "activation": "linear", "strides": [1, 1], "trainable": false, "bias_initializer": {"class_name": "Zeros", "config": {}}, "activity_regularizer": null, "name": "res2c_branch2b", "dilation_rate": [1, 1], "kernel_constraint": null, "use_bias": true, "kernel_regularizer": null, "padding": "same", "bias_regularizer": null}}, {"inbound_nodes": [[["res2c_branch2b", 0, 0, {}]]], "name": "bn2c_branch2b", "class_name": "BatchNormalization", "config": {"gamma_initializer": {"class_name": "Ones", "config": {}}, "beta_initializer": {"class_name": "Zeros", "config": {}}, "gamma_constraint": null, "momentum": 0.99, "beta_regularizer": null, "moving_variance_initializer": {"class_name": "Ones", "config": {}}, "gamma_regularizer": null, "scale": true, "beta_constraint": null, "epsilon": 0.001, "name": "bn2c_branch2b", "axis": 3, "moving_mean_initializer": {"class_name": "Zeros", "config": {}}, "center": true, "trainable": false}}, {"inbound_nodes": [[["bn2c_branch2b", 0, 0, {}]]], "name": "activation_9", "class_name": "Activation", "config": {"activation": "relu", "name": "activation_9", "trainable": false}}, {"inbound_nodes": [[["activation_9", 0, 0, {}]]], "name": "res2c_branch2c", "class_name": "Conv2D", "config": {"bias_constraint": null, "kernel_size": [1, 1], "filters": 256, "kernel_initializer": {"class_name": "VarianceScaling", "config": {"seed": null, "scale": 1.0, "distribution": "uniform", "mode": "fan_avg"}}, "data_format": "channels_last", "activation": "linear", "strides": [1, 1], "trainable": false, "bias_initializer": {"class_name": "Zeros", "config": {}}, "activity_regularizer": null, "name": "res2c_branch2c", "dilation_rate": [1, 1], "kernel_constraint": null, "use_bias": true, "kernel_regularizer": null, "padding": "valid", "bias_regularizer": null}}, {"inbound_nodes": [[["res2c_branch2c", 0, 0, {}]]], "name": "bn2c_branch2c", "class_name": "BatchNormalization", "config": {"gamma_initializer": {"class_name": "Ones", "config": {}}, "beta_initializer": {"class_name": "Zeros", "config": {}}, "gamma_constraint": null, "momentum": 0.99, "beta_regularizer": null, "moving_variance_initializer": {"class_name": "Ones", "config": {}}, "gamma_regularizer": null, "scale": true, "beta_constraint": null, "epsilon": 0.001, "name": "bn2c_branch2c", "axis": 3, "moving_mean_initializer": {"class_name": "Zeros", "config": {}}, "center": true, "trainable": false}}, {"inbound_nodes": [[["bn2c_branch2c", 0, 0, {}], ["activation_7", 0, 0, {}]]], "name": "add_3", "class_name": "Add", "config": {"name": "add_3", "trainable": false}}, {"inbound_nodes": [[["add_3", 0, 0, {}]]], "name": "activation_10", "class_name": "Activation", "config": {"activation": "relu", "name": "activation_10", "trainable": false}}, {"inbound_nodes": [[["activation_10", 0, 0, {}]]], "name": "res3a_branch2a", "class_name": "Conv2D", "config": {"bias_constraint": null, "kernel_size": [1, 1], "filters": 128, "kernel_initializer": {"class_name": "VarianceScaling", "config": {"seed": null, "scale": 1.0, "distribution": "uniform", "mode": "fan_avg"}}, "data_format": "channels_last", "activation": "linear", "strides": [2, 2], "trainable": false, "bias_initializer": {"class_name": "Zeros", "config": {}}, "activity_regularizer": null, "name": "res3a_branch2a", "dilation_rate": [1, 1], "kernel_constraint": null, "use_bias": true, "kernel_regularizer": null, "padding": "valid", "bias_regularizer": null}}, {"inbound_nodes": [[["res3a_branch2a", 0, 0, {}]]], "name": "bn3a_branch2a", "class_name": "BatchNormalization", "config": {"gamma_initializer": {"class_name": "Ones", "config": {}}, "beta_initializer": {"class_name": "Zeros", "config": {}}, "gamma_constraint": null, "momentum": 0.99, "beta_regularizer": null, "moving_variance_initializer": {"class_name": "Ones", "config": {}}, "gamma_regularizer": null, "scale": true, "beta_constraint": null, "epsilon": 0.001, "name": "bn3a_branch2a", "axis": 3, "moving_mean_initializer": {"class_name": "Zeros", "config": {}}, "center": true, "trainable": false}}, {"inbound_nodes": [[["bn3a_branch2a", 0, 0, {}]]], "name": "activation_11", "class_name": "Activation", "config": {"activation": "relu", "name": "activation_11", "trainable": false}}, {"inbound_nodes": [[["activation_11", 0, 0, {}]]], "name": "res3a_branch2b", "class_name": "Conv2D", "config": {"bias_constraint": null, "kernel_size": [3, 3], "filters": 128, "kernel_initializer": {"class_name": "VarianceScaling", "config": {"seed": null, "scale": 1.0, "distribution": "uniform", "mode": "fan_avg"}}, "data_format": "channels_last", "activation": "linear", "strides": [1, 1], "trainable": false, "bias_initializer": {"class_name": "Zeros", "config": {}}, "activity_regularizer": null, "name": "res3a_branch2b", "dilation_rate": [1, 1], "kernel_constraint": null, "use_bias": true, "kernel_regularizer": null, "padding": "same", "bias_regularizer": null}}, {"inbound_nodes": [[["res3a_branch2b", 0, 0, {}]]], "name": "bn3a_branch2b", "class_name": "BatchNormalization", "config": {"gamma_initializer": {"class_name": "Ones", "config": {}}, "beta_initializer": {"class_name": "Zeros", "config": {}}, "gamma_constraint": null, "momentum": 0.99, "beta_regularizer": null, "moving_variance_initializer": {"class_name": "Ones", "config": {}}, "gamma_regularizer": null, "scale": true, "beta_constraint": null, "epsilon": 0.001, "name": "bn3a_branch2b", "axis": 3, "moving_mean_initializer": {"class_name": "Zeros", "config": {}}, "center": true, "trainable": false}}, {"inbound_nodes": [[["bn3a_branch2b", 0, 0, {}]]], "name": "activation_12", "class_name": "Activation", "config": {"activation": "relu", "name": "activation_12", "trainable": false}}, {"inbound_nodes": [[["activation_12", 0, 0, {}]]], "name": "res3a_branch2c", "class_name": "Conv2D", "config": {"bias_constraint": null, "kernel_size": [1, 1], "filters": 512, "kernel_initializer": {"class_name": "VarianceScaling", "config": {"seed": null, "scale": 1.0, "distribution": "uniform", "mode": "fan_avg"}}, "data_format": "channels_last", "activation": "linear", "strides": [1, 1], "trainable": false, "bias_initializer": {"class_name": "Zeros", "config": {}}, "activity_regularizer": null, "name": "res3a_branch2c", "dilation_rate": [1, 1], "kernel_constraint": null, "use_bias": true, "kernel_regularizer": null, "padding": "valid", "bias_regularizer": null}}, {"inbound_nodes": [[["activation_10", 0, 0, {}]]], "name": "res3a_branch1", "class_name": "Conv2D", "config": {"bias_constraint": null, "kernel_size": [1, 1], "filters": 512, "kernel_initializer": {"class_name": "VarianceScaling", "config": {"seed": null, "scale": 1.0, "distribution": "uniform", "mode": "fan_avg"}}, "data_format": "channels_last", "activation": "linear", "strides": [2, 2], "trainable": false, "bias_initializer": {"class_name": "Zeros", "config": {}}, "activity_regularizer": null, "name": "res3a_branch1", "dilation_rate": [1, 1], "kernel_constraint": null, "use_bias": true, "kernel_regularizer": null, "padding": "valid", "bias_regularizer": null}}, {"inbound_nodes": [[["res3a_branch2c", 0, 0, {}]]], "name": "bn3a_branch2c", "class_name": "BatchNormalization", "config": {"gamma_initializer": {"class_name": "Ones", "config": {}}, "beta_initializer": {"class_name": "Zeros", "config": {}}, "gamma_constraint": null, "momentum": 0.99, "beta_regularizer": null, "moving_variance_initializer": {"class_name": "Ones", "config": {}}, "gamma_regularizer": null, "scale": true, "beta_constraint": null, "epsilon": 0.001, "name": "bn3a_branch2c", "axis": 3, "moving_mean_initializer": {"class_name": "Zeros", "config": {}}, "center": true, "trainable": false}}, {"inbound_nodes": [[["res3a_branch1", 0, 0, {}]]], "name": "bn3a_branch1", "class_name": "BatchNormalization", "config": {"gamma_initializer": {"class_name": "Ones", "config": {}}, "beta_initializer": {"class_name": "Zeros", "config": {}}, "gamma_constraint": null, "momentum": 0.99, "beta_regularizer": null, "moving_variance_initializer": {"class_name": "Ones", "config": {}}, "gamma_regularizer": null, "scale": true, "beta_constraint": null, "epsilon": 0.001, "name": "bn3a_branch1", "axis": 3, "moving_mean_initializer": {"class_name": "Zeros", "config": {}}, "center": true, "trainable": false}}, {"inbound_nodes": [[["bn3a_branch2c", 0, 0, {}], ["bn3a_branch1", 0, 0, {}]]], "name": "add_4", "class_name": "Add", "config": {"name": "add_4", "trainable": false}}, {"inbound_nodes": [[["add_4", 0, 0, {}]]], "name": "activation_13", "class_name": "Activation", "config": {"activation": "relu", "name": "activation_13", "trainable": false}}, {"inbound_nodes": [[["activation_13", 0, 0, {}]]], "name": "res3b_branch2a", "class_name": "Conv2D", "config": {"bias_constraint": null, "kernel_size": [1, 1], "filters": 128, "kernel_initializer": {"class_name": "VarianceScaling", "config": {"seed": null, "scale": 1.0, "distribution": "uniform", "mode": "fan_avg"}}, "data_format": "channels_last", "activation": "linear", "strides": [1, 1], "trainable": false, "bias_initializer": {"class_name": "Zeros", "config": {}}, "activity_regularizer": null, "name": "res3b_branch2a", "dilation_rate": [1, 1], "kernel_constraint": null, "use_bias": true, "kernel_regularizer": null, "padding": "valid", "bias_regularizer": null}}, {"inbound_nodes": [[["res3b_branch2a", 0, 0, {}]]], "name": "bn3b_branch2a", "class_name": "BatchNormalization", "config": {"gamma_initializer": {"class_name": "Ones", "config": {}}, "beta_initializer": {"class_name": "Zeros", "config": {}}, "gamma_constraint": null, "momentum": 0.99, "beta_regularizer": null, "moving_variance_initializer": {"class_name": "Ones", "config": {}}, "gamma_regularizer": null, "scale": true, "beta_constraint": null, "epsilon": 0.001, "name": "bn3b_branch2a", "axis": 3, "moving_mean_initializer": {"class_name": "Zeros", "config": {}}, "center": true, "trainable": false}}, {"inbound_nodes": [[["bn3b_branch2a", 0, 0, {}]]], "name": "activation_14", "class_name": "Activation", "config": {"activation": "relu", "name": "activation_14", "trainable": false}}, {"inbound_nodes": [[["activation_14", 0, 0, {}]]], "name": "res3b_branch2b", "class_name": "Conv2D", "config": {"bias_constraint": null, "kernel_size": [3, 3], "filters": 128, "kernel_initializer": {"class_name": "VarianceScaling", "config": {"seed": null, "scale": 1.0, "distribution": "uniform", "mode": "fan_avg"}}, "data_format": "channels_last", "activation": "linear", "strides": [1, 1], "trainable": false, "bias_initializer": {"class_name": "Zeros", "config": {}}, "activity_regularizer": null, "name": "res3b_branch2b", "dilation_rate": [1, 1], "kernel_constraint": null, "use_bias": true, "kernel_regularizer": null, "padding": "same", "bias_regularizer": null}}, {"inbound_nodes": [[["res3b_branch2b", 0, 0, {}]]], "name": "bn3b_branch2b", "class_name": "BatchNormalization", "config": {"gamma_initializer": {"class_name": "Ones", "config": {}}, "beta_initializer": {"class_name": "Zeros", "config": {}}, "gamma_constraint": null, "momentum": 0.99, "beta_regularizer": null, "moving_variance_initializer": {"class_name": "Ones", "config": {}}, "gamma_regularizer": null, "scale": true, "beta_constraint": null, "epsilon": 0.001, "name": "bn3b_branch2b", "axis": 3, "moving_mean_initializer": {"class_name": "Zeros", "config": {}}, "center": true, "trainable": false}}, {"inbound_nodes": [[["bn3b_branch2b", 0, 0, {}]]], "name": "activation_15", "class_name": "Activation", "config": {"activation": "relu", "name": "activation_15", "trainable": false}}, {"inbound_nodes": [[["activation_15", 0, 0, {}]]], "name": "res3b_branch2c", "class_name": "Conv2D", "config": {"bias_constraint": null, "kernel_size": [1, 1], "filters": 512, "kernel_initializer": {"class_name": "VarianceScaling", "config": {"seed": null, "scale": 1.0, "distribution": "uniform", "mode": "fan_avg"}}, "data_format": "channels_last", "activation": "linear", "strides": [1, 1], "trainable": false, "bias_initializer": {"class_name": "Zeros", "config": {}}, "activity_regularizer": null, "name": "res3b_branch2c", "dilation_rate": [1, 1], "kernel_constraint": null, "use_bias": true, "kernel_regularizer": null, "padding": "valid", "bias_regularizer": null}}, {"inbound_nodes": [[["res3b_branch2c", 0, 0, {}]]], "name": "bn3b_branch2c", "class_name": "BatchNormalization", "config": {"gamma_initializer": {"class_name": "Ones", "config": {}}, "beta_initializer": {"class_name": "Zeros", "config": {}}, "gamma_constraint": null, "momentum": 0.99, "beta_regularizer": null, "moving_variance_initializer": {"class_name": "Ones", "config": {}}, "gamma_regularizer": null, "scale": true, "beta_constraint": null, "epsilon": 0.001, "name": "bn3b_branch2c", "axis": 3, "moving_mean_initializer": {"class_name": "Zeros", "config": {}}, "center": true, "trainable": false}}, {"inbound_nodes": [[["bn3b_branch2c", 0, 0, {}], ["activation_13", 0, 0, {}]]], "name": "add_5", "class_name": "Add", "config": {"name": "add_5", "trainable": false}}, {"inbound_nodes": [[["add_5", 0, 0, {}]]], "name": "activation_16", "class_name": "Activation", "config": {"activation": "relu", "name": "activation_16", "trainable": false}}, {"inbound_nodes": [[["activation_16", 0, 0, {}]]], "name": "res3c_branch2a", "class_name": "Conv2D", "config": {"bias_constraint": null, "kernel_size": [1, 1], "filters": 128, "kernel_initializer": {"class_name": "VarianceScaling", "config": {"seed": null, "scale": 1.0, "distribution": "uniform", "mode": "fan_avg"}}, "data_format": "channels_last", "activation": "linear", "strides": [1, 1], "trainable": false, "bias_initializer": {"class_name": "Zeros", "config": {}}, "activity_regularizer": null, "name": "res3c_branch2a", "dilation_rate": [1, 1], "kernel_constraint": null, "use_bias": true, "kernel_regularizer": null, "padding": "valid", "bias_regularizer": null}}, {"inbound_nodes": [[["res3c_branch2a", 0, 0, {}]]], "name": "bn3c_branch2a", "class_name": "BatchNormalization", "config": {"gamma_initializer": {"class_name": "Ones", "config": {}}, "beta_initializer": {"class_name": "Zeros", "config": {}}, "gamma_constraint": null, "momentum": 0.99, "beta_regularizer": null, "moving_variance_initializer": {"class_name": "Ones", "config": {}}, "gamma_regularizer": null, "scale": true, "beta_constraint": null, "epsilon": 0.001, "name": "bn3c_branch2a", "axis": 3, "moving_mean_initializer": {"class_name": "Zeros", "config": {}}, "center": true, "trainable": false}}, {"inbound_nodes": [[["bn3c_branch2a", 0, 0, {}]]], "name": "activation_17", "class_name": "Activation", "config": {"activation": "relu", "name": "activation_17", "trainable": false}}, {"inbound_nodes": [[["activation_17", 0, 0, {}]]], "name": "res3c_branch2b", "class_name": "Conv2D", "config": {"bias_constraint": null, "kernel_size": [3, 3], "filters": 128, "kernel_initializer": {"class_name": "VarianceScaling", "config": {"seed": null, "scale": 1.0, "distribution": "uniform", "mode": "fan_avg"}}, "data_format": "channels_last", "activation": "linear", "strides": [1, 1], "trainable": false, "bias_initializer": {"class_name": "Zeros", "config": {}}, "activity_regularizer": null, "name": "res3c_branch2b", "dilation_rate": [1, 1], "kernel_constraint": null, "use_bias": true, "kernel_regularizer": null, "padding": "same", "bias_regularizer": null}}, {"inbound_nodes": [[["res3c_branch2b", 0, 0, {}]]], "name": "bn3c_branch2b", "class_name": "BatchNormalization", "config": {"gamma_initializer": {"class_name": "Ones", "config": {}}, "beta_initializer": {"class_name": "Zeros", "config": {}}, "gamma_constraint": null, "momentum": 0.99, "beta_regularizer": null, "moving_variance_initializer": {"class_name": "Ones", "config": {}}, "gamma_regularizer": null, "scale": true, "beta_constraint": null, "epsilon": 0.001, "name": "bn3c_branch2b", "axis": 3, "moving_mean_initializer": {"class_name": "Zeros", "config": {}}, "center": true, "trainable": false}}, {"inbound_nodes": [[["bn3c_branch2b", 0, 0, {}]]], "name": "activation_18", "class_name": "Activation", "config": {"activation": "relu", "name": "activation_18", "trainable": false}}, {"inbound_nodes": [[["activation_18", 0, 0, {}]]], "name": "res3c_branch2c", "class_name": "Conv2D", "config": {"bias_constraint": null, "kernel_size": [1, 1], "filters": 512, "kernel_initializer": {"class_name": "VarianceScaling", "config": {"seed": null, "scale": 1.0, "distribution": "uniform", "mode": "fan_avg"}}, "data_format": "channels_last", "activation": "linear", "strides": [1, 1], "trainable": false, "bias_initializer": {"class_name": "Zeros", "config": {}}, "activity_regularizer": null, "name": "res3c_branch2c", "dilation_rate": [1, 1], "kernel_constraint": null, "use_bias": true, "kernel_regularizer": null, "padding": "valid", "bias_regularizer": null}}, {"inbound_nodes": [[["res3c_branch2c", 0, 0, {}]]], "name": "bn3c_branch2c", "class_name": "BatchNormalization", "config": {"gamma_initializer": {"class_name": "Ones", "config": {}}, "beta_initializer": {"class_name": "Zeros", "config": {}}, "gamma_constraint": null, "momentum": 0.99, "beta_regularizer": null, "moving_variance_initializer": {"class_name": "Ones", "config": {}}, "gamma_regularizer": null, "scale": true, "beta_constraint": null, "epsilon": 0.001, "name": "bn3c_branch2c", "axis": 3, "moving_mean_initializer": {"class_name": "Zeros", "config": {}}, "center": true, "trainable": false}}, {"inbound_nodes": [[["bn3c_branch2c", 0, 0, {}], ["activation_16", 0, 0, {}]]], "name": "add_6", "class_name": "Add", "config": {"name": "add_6", "trainable": false}}, {"inbound_nodes": [[["add_6", 0, 0, {}]]], "name": "activation_19", "class_name": "Activation", "config": {"activation": "relu", "name": "activation_19", "trainable": false}}, {"inbound_nodes": [[["activation_19", 0, 0, {}]]], "name": "res3d_branch2a", "class_name": "Conv2D", "config": {"bias_constraint": null, "kernel_size": [1, 1], "filters": 128, "kernel_initializer": {"class_name": "VarianceScaling", "config": {"seed": null, "scale": 1.0, "distribution": "uniform", "mode": "fan_avg"}}, "data_format": "channels_last", "activation": "linear", "strides": [1, 1], "trainable": false, "bias_initializer": {"class_name": "Zeros", "config": {}}, "activity_regularizer": null, "name": "res3d_branch2a", "dilation_rate": [1, 1], "kernel_constraint": null, "use_bias": true, "kernel_regularizer": null, "padding": "valid", "bias_regularizer": null}}, {"inbound_nodes": [[["res3d_branch2a", 0, 0, {}]]], "name": "bn3d_branch2a", "class_name": "BatchNormalization", "config": {"gamma_initializer": {"class_name": "Ones", "config": {}}, "beta_initializer": {"class_name": "Zeros", "config": {}}, "gamma_constraint": null, "momentum": 0.99, "beta_regularizer": null, "moving_variance_initializer": {"class_name": "Ones", "config": {}}, "gamma_regularizer": null, "scale": true, "beta_constraint": null, "epsilon": 0.001, "name": "bn3d_branch2a", "axis": 3, "moving_mean_initializer": {"class_name": "Zeros", "config": {}}, "center": true, "trainable": false}}, {"inbound_nodes": [[["bn3d_branch2a", 0, 0, {}]]], "name": "activation_20", "class_name": "Activation", "config": {"activation": "relu", "name": "activation_20", "trainable": false}}, {"inbound_nodes": [[["activation_20", 0, 0, {}]]], "name": "res3d_branch2b", "class_name": "Conv2D", "config": {"bias_constraint": null, "kernel_size": [3, 3], "filters": 128, "kernel_initializer": {"class_name": "VarianceScaling", "config": {"seed": null, "scale": 1.0, "distribution": "uniform", "mode": "fan_avg"}}, "data_format": "channels_last", "activation": "linear", "strides": [1, 1], "trainable": false, "bias_initializer": {"class_name": "Zeros", "config": {}}, "activity_regularizer": null, "name": "res3d_branch2b", "dilation_rate": [1, 1], "kernel_constraint": null, "use_bias": true, "kernel_regularizer": null, "padding": "same", "bias_regularizer": null}}, {"inbound_nodes": [[["res3d_branch2b", 0, 0, {}]]], "name": "bn3d_branch2b", "class_name": "BatchNormalization", "config": {"gamma_initializer": {"class_name": "Ones", "config": {}}, "beta_initializer": {"class_name": "Zeros", "config": {}}, "gamma_constraint": null, "momentum": 0.99, "beta_regularizer": null, "moving_variance_initializer": {"class_name": "Ones", "config": {}}, "gamma_regularizer": null, "scale": true, "beta_constraint": null, "epsilon": 0.001, "name": "bn3d_branch2b", "axis": 3, "moving_mean_initializer": {"class_name": "Zeros", "config": {}}, "center": true, "trainable": false}}, {"inbound_nodes": [[["bn3d_branch2b", 0, 0, {}]]], "name": "activation_21", "class_name": "Activation", "config": {"activation": "relu", "name": "activation_21", "trainable": false}}, {"inbound_nodes": [[["activation_21", 0, 0, {}]]], "name": "res3d_branch2c", "class_name": "Conv2D", "config": {"bias_constraint": null, "kernel_size": [1, 1], "filters": 512, "kernel_initializer": {"class_name": "VarianceScaling", "config": {"seed": null, "scale": 1.0, "distribution": "uniform", "mode": "fan_avg"}}, "data_format": "channels_last", "activation": "linear", "strides": [1, 1], "trainable": false, "bias_initializer": {"class_name": "Zeros", "config": {}}, "activity_regularizer": null, "name": "res3d_branch2c", "dilation_rate": [1, 1], "kernel_constraint": null, "use_bias": true, "kernel_regularizer": null, "padding": "valid", "bias_regularizer": null}}, {"inbound_nodes": [[["res3d_branch2c", 0, 0, {}]]], "name": "bn3d_branch2c", "class_name": "BatchNormalization", "config": {"gamma_initializer": {"class_name": "Ones", "config": {}}, "beta_initializer": {"class_name": "Zeros", "config": {}}, "gamma_constraint": null, "momentum": 0.99, "beta_regularizer": null, "moving_variance_initializer": {"class_name": "Ones", "config": {}}, "gamma_regularizer": null, "scale": true, "beta_constraint": null, "epsilon": 0.001, "name": "bn3d_branch2c", "axis": 3, "moving_mean_initializer": {"class_name": "Zeros", "config": {}}, "center": true, "trainable": false}}, {"inbound_nodes": [[["bn3d_branch2c", 0, 0, {}], ["activation_19", 0, 0, {}]]], "name": "add_7", "class_name": "Add", "config": {"name": "add_7", "trainable": false}}, {"inbound_nodes": [[["add_7", 0, 0, {}]]], "name": "activation_22", "class_name": "Activation", "config": {"activation": "relu", "name": "activation_22", "trainable": false}}, {"inbound_nodes": [[["activation_22", 0, 0, {}]]], "name": "res4a_branch2a", "class_name": "Conv2D", "config": {"bias_constraint": null, "kernel_size": [1, 1], "filters": 256, "kernel_initializer": {"class_name": "VarianceScaling", "config": {"seed": null, "scale": 1.0, "distribution": "uniform", "mode": "fan_avg"}}, "data_format": "channels_last", "activation": "linear", "strides": [2, 2], "trainable": false, "bias_initializer": {"class_name": "Zeros", "config": {}}, "activity_regularizer": null, "name": "res4a_branch2a", "dilation_rate": [1, 1], "kernel_constraint": null, "use_bias": true, "kernel_regularizer": null, "padding": "valid", "bias_regularizer": null}}, {"inbound_nodes": [[["res4a_branch2a", 0, 0, {}]]], "name": "bn4a_branch2a", "class_name": "BatchNormalization", "config": {"gamma_initializer": {"class_name": "Ones", "config": {}}, "beta_initializer": {"class_name": "Zeros", "config": {}}, "gamma_constraint": null, "momentum": 0.99, "beta_regularizer": null, "moving_variance_initializer": {"class_name": "Ones", "config": {}}, "gamma_regularizer": null, "scale": true, "beta_constraint": null, "epsilon": 0.001, "name": "bn4a_branch2a", "axis": 3, "moving_mean_initializer": {"class_name": "Zeros", "config": {}}, "center": true, "trainable": false}}, {"inbound_nodes": [[["bn4a_branch2a", 0, 0, {}]]], "name": "activation_23", "class_name": "Activation", "config": {"activation": "relu", "name": "activation_23", "trainable": false}}, {"inbound_nodes": [[["activation_23", 0, 0, {}]]], "name": "res4a_branch2b", "class_name": "Conv2D", "config": {"bias_constraint": null, "kernel_size": [3, 3], "filters": 256, "kernel_initializer": {"class_name": "VarianceScaling", "config": {"seed": null, "scale": 1.0, "distribution": "uniform", "mode": "fan_avg"}}, "data_format": "channels_last", "activation": "linear", "strides": [1, 1], "trainable": false, "bias_initializer": {"class_name": "Zeros", "config": {}}, "activity_regularizer": null, "name": "res4a_branch2b", "dilation_rate": [1, 1], "kernel_constraint": null, "use_bias": true, "kernel_regularizer": null, "padding": "same", "bias_regularizer": null}}, {"inbound_nodes": [[["res4a_branch2b", 0, 0, {}]]], "name": "bn4a_branch2b", "class_name": "BatchNormalization", "config": {"gamma_initializer": {"class_name": "Ones", "config": {}}, "beta_initializer": {"class_name": "Zeros", "config": {}}, "gamma_constraint": null, "momentum": 0.99, "beta_regularizer": null, "moving_variance_initializer": {"class_name": "Ones", "config": {}}, "gamma_regularizer": null, "scale": true, "beta_constraint": null, "epsilon": 0.001, "name": "bn4a_branch2b", "axis": 3, "moving_mean_initializer": {"class_name": "Zeros", "config": {}}, "center": true, "trainable": false}}, {"inbound_nodes": [[["bn4a_branch2b", 0, 0, {}]]], "name": "activation_24", "class_name": "Activation", "config": {"activation": "relu", "name": "activation_24", "trainable": false}}, {"inbound_nodes": [[["activation_24", 0, 0, {}]]], "name": "res4a_branch2c", "class_name": "Conv2D", "config": {"bias_constraint": null, "kernel_size": [1, 1], "filters": 1024, "kernel_initializer": {"class_name": "VarianceScaling", "config": {"seed": null, "scale": 1.0, "distribution": "uniform", "mode": "fan_avg"}}, "data_format": "channels_last", "activation": "linear", "strides": [1, 1], "trainable": false, "bias_initializer": {"class_name": "Zeros", "config": {}}, "activity_regularizer": null, "name": "res4a_branch2c", "dilation_rate": [1, 1], "kernel_constraint": null, "use_bias": true, "kernel_regularizer": null, "padding": "valid", "bias_regularizer": null}}, {"inbound_nodes": [[["activation_22", 0, 0, {}]]], "name": "res4a_branch1", "class_name": "Conv2D", "config": {"bias_constraint": null, "kernel_size": [1, 1], "filters": 1024, "kernel_initializer": {"class_name": "VarianceScaling", "config": {"seed": null, "scale": 1.0, "distribution": "uniform", "mode": "fan_avg"}}, "data_format": "channels_last", "activation": "linear", "strides": [2, 2], "trainable": false, "bias_initializer": {"class_name": "Zeros", "config": {}}, "activity_regularizer": null, "name": "res4a_branch1", "dilation_rate": [1, 1], "kernel_constraint": null, "use_bias": true, "kernel_regularizer": null, "padding": "valid", "bias_regularizer": null}}, {"inbound_nodes": [[["res4a_branch2c", 0, 0, {}]]], "name": "bn4a_branch2c", "class_name": "BatchNormalization", "config": {"gamma_initializer": {"class_name": "Ones", "config": {}}, "beta_initializer": {"class_name": "Zeros", "config": {}}, "gamma_constraint": null, "momentum": 0.99, "beta_regularizer": null, "moving_variance_initializer": {"class_name": "Ones", "config": {}}, "gamma_regularizer": null, "scale": true, "beta_constraint": null, "epsilon": 0.001, "name": "bn4a_branch2c", "axis": 3, "moving_mean_initializer": {"class_name": "Zeros", "config": {}}, "center": true, "trainable": false}}, {"inbound_nodes": [[["res4a_branch1", 0, 0, {}]]], "name": "bn4a_branch1", "class_name": "BatchNormalization", "config": {"gamma_initializer": {"class_name": "Ones", "config": {}}, "beta_initializer": {"class_name": "Zeros", "config": {}}, "gamma_constraint": null, "momentum": 0.99, "beta_regularizer": null, "moving_variance_initializer": {"class_name": "Ones", "config": {}}, "gamma_regularizer": null, "scale": true, "beta_constraint": null, "epsilon": 0.001, "name": "bn4a_branch1", "axis": 3, "moving_mean_initializer": {"class_name": "Zeros", "config": {}}, "center": true, "trainable": false}}, {"inbound_nodes": [[["bn4a_branch2c", 0, 0, {}], ["bn4a_branch1", 0, 0, {}]]], "name": "add_8", "class_name": "Add", "config": {"name": "add_8", "trainable": false}}, {"inbound_nodes": [[["add_8", 0, 0, {}]]], "name": "activation_25", "class_name": "Activation", "config": {"activation": "relu", "name": "activation_25", "trainable": false}}, {"inbound_nodes": [[["activation_25", 0, 0, {}]]], "name": "res4b_branch2a", "class_name": "Conv2D", "config": {"bias_constraint": null, "kernel_size": [1, 1], "filters": 256, "kernel_initializer": {"class_name": "VarianceScaling", "config": {"seed": null, "scale": 1.0, "distribution": "uniform", "mode": "fan_avg"}}, "data_format": "channels_last", "activation": "linear", "strides": [1, 1], "trainable": false, "bias_initializer": {"class_name": "Zeros", "config": {}}, "activity_regularizer": null, "name": "res4b_branch2a", "dilation_rate": [1, 1], "kernel_constraint": null, "use_bias": true, "kernel_regularizer": null, "padding": "valid", "bias_regularizer": null}}, {"inbound_nodes": [[["res4b_branch2a", 0, 0, {}]]], "name": "bn4b_branch2a", "class_name": "BatchNormalization", "config": {"gamma_initializer": {"class_name": "Ones", "config": {}}, "beta_initializer": {"class_name": "Zeros", "config": {}}, "gamma_constraint": null, "momentum": 0.99, "beta_regularizer": null, "moving_variance_initializer": {"class_name": "Ones", "config": {}}, "gamma_regularizer": null, "scale": true, "beta_constraint": null, "epsilon": 0.001, "name": "bn4b_branch2a", "axis": 3, "moving_mean_initializer": {"class_name": "Zeros", "config": {}}, "center": true, "trainable": false}}, {"inbound_nodes": [[["bn4b_branch2a", 0, 0, {}]]], "name": "activation_26", "class_name": "Activation", "config": {"activation": "relu", "name": "activation_26", "trainable": false}}, {"inbound_nodes": [[["activation_26", 0, 0, {}]]], "name": "res4b_branch2b", "class_name": "Conv2D", "config": {"bias_constraint": null, "kernel_size": [3, 3], "filters": 256, "kernel_initializer": {"class_name": "VarianceScaling", "config": {"seed": null, "scale": 1.0, "distribution": "uniform", "mode": "fan_avg"}}, "data_format": "channels_last", "activation": "linear", "strides": [1, 1], "trainable": false, "bias_initializer": {"class_name": "Zeros", "config": {}}, "activity_regularizer": null, "name": "res4b_branch2b", "dilation_rate": [1, 1], "kernel_constraint": null, "use_bias": true, "kernel_regularizer": null, "padding": "same", "bias_regularizer": null}}, {"inbound_nodes": [[["res4b_branch2b", 0, 0, {}]]], "name": "bn4b_branch2b", "class_name": "BatchNormalization", "config": {"gamma_initializer": {"class_name": "Ones", "config": {}}, "beta_initializer": {"class_name": "Zeros", "config": {}}, "gamma_constraint": null, "momentum": 0.99, "beta_regularizer": null, "moving_variance_initializer": {"class_name": "Ones", "config": {}}, "gamma_regularizer": null, "scale": true, "beta_constraint": null, "epsilon": 0.001, "name": "bn4b_branch2b", "axis": 3, "moving_mean_initializer": {"class_name": "Zeros", "config": {}}, "center": true, "trainable": false}}, {"inbound_nodes": [[["bn4b_branch2b", 0, 0, {}]]], "name": "activation_27", "class_name": "Activation", "config": {"activation": "relu", "name": "activation_27", "trainable": false}}, {"inbound_nodes": [[["activation_27", 0, 0, {}]]], "name": "res4b_branch2c", "class_name": "Conv2D", "config": {"bias_constraint": null, "kernel_size": [1, 1], "filters": 1024, "kernel_initializer": {"class_name": "VarianceScaling", "config": {"seed": null, "scale": 1.0, "distribution": "uniform", "mode": "fan_avg"}}, "data_format": "channels_last", "activation": "linear", "strides": [1, 1], "trainable": false, "bias_initializer": {"class_name": "Zeros", "config": {}}, "activity_regularizer": null, "name": "res4b_branch2c", "dilation_rate": [1, 1], "kernel_constraint": null, "use_bias": true, "kernel_regularizer": null, "padding": "valid", "bias_regularizer": null}}, {"inbound_nodes": [[["res4b_branch2c", 0, 0, {}]]], "name": "bn4b_branch2c", "class_name": "BatchNormalization", "config": {"gamma_initializer": {"class_name": "Ones", "config": {}}, "beta_initializer": {"class_name": "Zeros", "config": {}}, "gamma_constraint": null, "momentum": 0.99, "beta_regularizer": null, "moving_variance_initializer": {"class_name": "Ones", "config": {}}, "gamma_regularizer": null, "scale": true, "beta_constraint": null, "epsilon": 0.001, "name": "bn4b_branch2c", "axis": 3, "moving_mean_initializer": {"class_name": "Zeros", "config": {}}, "center": true, "trainable": false}}, {"inbound_nodes": [[["bn4b_branch2c", 0, 0, {}], ["activation_25", 0, 0, {}]]], "name": "add_9", "class_name": "Add", "config": {"name": "add_9", "trainable": false}}, {"inbound_nodes": [[["add_9", 0, 0, {}]]], "name": "activation_28", "class_name": "Activation", "config": {"activation": "relu", "name": "activation_28", "trainable": false}}, {"inbound_nodes": [[["activation_28", 0, 0, {}]]], "name": "res4c_branch2a", "class_name": "Conv2D", "config": {"bias_constraint": null, "kernel_size": [1, 1], "filters": 256, "kernel_initializer": {"class_name": "VarianceScaling", "config": {"seed": null, "scale": 1.0, "distribution": "uniform", "mode": "fan_avg"}}, "data_format": "channels_last", "activation": "linear", "strides": [1, 1], "trainable": false, "bias_initializer": {"class_name": "Zeros", "config": {}}, "activity_regularizer": null, "name": "res4c_branch2a", "dilation_rate": [1, 1], "kernel_constraint": null, "use_bias": true, "kernel_regularizer": null, "padding": "valid", "bias_regularizer": null}}, {"inbound_nodes": [[["res4c_branch2a", 0, 0, {}]]], "name": "bn4c_branch2a", "class_name": "BatchNormalization", "config": {"gamma_initializer": {"class_name": "Ones", "config": {}}, "beta_initializer": {"class_name": "Zeros", "config": {}}, "gamma_constraint": null, "momentum": 0.99, "beta_regularizer": null, "moving_variance_initializer": {"class_name": "Ones", "config": {}}, "gamma_regularizer": null, "scale": true, "beta_constraint": null, "epsilon": 0.001, "name": "bn4c_branch2a", "axis": 3, "moving_mean_initializer": {"class_name": "Zeros", "config": {}}, "center": true, "trainable": false}}, {"inbound_nodes": [[["bn4c_branch2a", 0, 0, {}]]], "name": "activation_29", "class_name": "Activation", "config": {"activation": "relu", "name": "activation_29", "trainable": false}}, {"inbound_nodes": [[["activation_29", 0, 0, {}]]], "name": "res4c_branch2b", "class_name": "Conv2D", "config": {"bias_constraint": null, "kernel_size": [3, 3], "filters": 256, "kernel_initializer": {"class_name": "VarianceScaling", "config": {"seed": null, "scale": 1.0, "distribution": "uniform", "mode": "fan_avg"}}, "data_format": "channels_last", "activation": "linear", "strides": [1, 1], "trainable": false, "bias_initializer": {"class_name": "Zeros", "config": {}}, "activity_regularizer": null, "name": "res4c_branch2b", "dilation_rate": [1, 1], "kernel_constraint": null, "use_bias": true, "kernel_regularizer": null, "padding": "same", "bias_regularizer": null}}, {"inbound_nodes": [[["res4c_branch2b", 0, 0, {}]]], "name": "bn4c_branch2b", "class_name": "BatchNormalization", "config": {"gamma_initializer": {"class_name": "Ones", "config": {}}, "beta_initializer": {"class_name": "Zeros", "config": {}}, "gamma_constraint": null, "momentum": 0.99, "beta_regularizer": null, "moving_variance_initializer": {"class_name": "Ones", "config": {}}, "gamma_regularizer": null, "scale": true, "beta_constraint": null, "epsilon": 0.001, "name": "bn4c_branch2b", "axis": 3, "moving_mean_initializer": {"class_name": "Zeros", "config": {}}, "center": true, "trainable": false}}, {"inbound_nodes": [[["bn4c_branch2b", 0, 0, {}]]], "name": "activation_30", "class_name": "Activation", "config": {"activation": "relu", "name": "activation_30", "trainable": false}}, {"inbound_nodes": [[["activation_30", 0, 0, {}]]], "name": "res4c_branch2c", "class_name": "Conv2D", "config": {"bias_constraint": null, "kernel_size": [1, 1], "filters": 1024, "kernel_initializer": {"class_name": "VarianceScaling", "config": {"seed": null, "scale": 1.0, "distribution": "uniform", "mode": "fan_avg"}}, "data_format": "channels_last", "activation": "linear", "strides": [1, 1], "trainable": false, "bias_initializer": {"class_name": "Zeros", "config": {}}, "activity_regularizer": null, "name": "res4c_branch2c", "dilation_rate": [1, 1], "kernel_constraint": null, "use_bias": true, "kernel_regularizer": null, "padding": "valid", "bias_regularizer": null}}, {"inbound_nodes": [[["res4c_branch2c", 0, 0, {}]]], "name": "bn4c_branch2c", "class_name": "BatchNormalization", "config": {"gamma_initializer": {"class_name": "Ones", "config": {}}, "beta_initializer": {"class_name": "Zeros", "config": {}}, "gamma_constraint": null, "momentum": 0.99, "beta_regularizer": null, "moving_variance_initializer": {"class_name": "Ones", "config": {}}, "gamma_regularizer": null, "scale": true, "beta_constraint": null, "epsilon": 0.001, "name": "bn4c_branch2c", "axis": 3, "moving_mean_initializer": {"class_name": "Zeros", "config": {}}, "center": true, "trainable": false}}, {"inbound_nodes": [[["bn4c_branch2c", 0, 0, {}], ["activation_28", 0, 0, {}]]], "name": "add_10", "class_name": "Add", "config": {"name": "add_10", "trainable": false}}, {"inbound_nodes": [[["add_10", 0, 0, {}]]], "name": "activation_31", "class_name": "Activation", "config": {"activation": "relu", "name": "activation_31", "trainable": false}}, {"inbound_nodes": [[["activation_31", 0, 0, {}]]], "name": "res4d_branch2a", "class_name": "Conv2D", "config": {"bias_constraint": null, "kernel_size": [1, 1], "filters": 256, "kernel_initializer": {"class_name": "VarianceScaling", "config": {"seed": null, "scale": 1.0, "distribution": "uniform", "mode": "fan_avg"}}, "data_format": "channels_last", "activation": "linear", "strides": [1, 1], "trainable": false, "bias_initializer": {"class_name": "Zeros", "config": {}}, "activity_regularizer": null, "name": "res4d_branch2a", "dilation_rate": [1, 1], "kernel_constraint": null, "use_bias": true, "kernel_regularizer": null, "padding": "valid", "bias_regularizer": null}}, {"inbound_nodes": [[["res4d_branch2a", 0, 0, {}]]], "name": "bn4d_branch2a", "class_name": "BatchNormalization", "config": {"gamma_initializer": {"class_name": "Ones", "config": {}}, "beta_initializer": {"class_name": "Zeros", "config": {}}, "gamma_constraint": null, "momentum": 0.99, "beta_regularizer": null, "moving_variance_initializer": {"class_name": "Ones", "config": {}}, "gamma_regularizer": null, "scale": true, "beta_constraint": null, "epsilon": 0.001, "name": "bn4d_branch2a", "axis": 3, "moving_mean_initializer": {"class_name": "Zeros", "config": {}}, "center": true, "trainable": false}}, {"inbound_nodes": [[["bn4d_branch2a", 0, 0, {}]]], "name": "activation_32", "class_name": "Activation", "config": {"activation": "relu", "name": "activation_32", "trainable": false}}, {"inbound_nodes": [[["activation_32", 0, 0, {}]]], "name": "res4d_branch2b", "class_name": "Conv2D", "config": {"bias_constraint": null, "kernel_size": [3, 3], "filters": 256, "kernel_initializer": {"class_name": "VarianceScaling", "config": {"seed": null, "scale": 1.0, "distribution": "uniform", "mode": "fan_avg"}}, "data_format": "channels_last", "activation": "linear", "strides": [1, 1], "trainable": false, "bias_initializer": {"class_name": "Zeros", "config": {}}, "activity_regularizer": null, "name": "res4d_branch2b", "dilation_rate": [1, 1], "kernel_constraint": null, "use_bias": true, "kernel_regularizer": null, "padding": "same", "bias_regularizer": null}}, {"inbound_nodes": [[["res4d_branch2b", 0, 0, {}]]], "name": "bn4d_branch2b", "class_name": "BatchNormalization", "config": {"gamma_initializer": {"class_name": "Ones", "config": {}}, "beta_initializer": {"class_name": "Zeros", "config": {}}, "gamma_constraint": null, "momentum": 0.99, "beta_regularizer": null, "moving_variance_initializer": {"class_name": "Ones", "config": {}}, "gamma_regularizer": null, "scale": true, "beta_constraint": null, "epsilon": 0.001, "name": "bn4d_branch2b", "axis": 3, "moving_mean_initializer": {"class_name": "Zeros", "config": {}}, "center": true, "trainable": false}}, {"inbound_nodes": [[["bn4d_branch2b", 0, 0, {}]]], "name": "activation_33", "class_name": "Activation", "config": {"activation": "relu", "name": "activation_33", "trainable": false}}, {"inbound_nodes": [[["activation_33", 0, 0, {}]]], "name": "res4d_branch2c", "class_name": "Conv2D", "config": {"bias_constraint": null, "kernel_size": [1, 1], "filters": 1024, "kernel_initializer": {"class_name": "VarianceScaling", "config": {"seed": null, "scale": 1.0, "distribution": "uniform", "mode": "fan_avg"}}, "data_format": "channels_last", "activation": "linear", "strides": [1, 1], "trainable": false, "bias_initializer": {"class_name": "Zeros", "config": {}}, "activity_regularizer": null, "name": "res4d_branch2c", "dilation_rate": [1, 1], "kernel_constraint": null, "use_bias": true, "kernel_regularizer": null, "padding": "valid", "bias_regularizer": null}}, {"inbound_nodes": [[["res4d_branch2c", 0, 0, {}]]], "name": "bn4d_branch2c", "class_name": "BatchNormalization", "config": {"gamma_initializer": {"class_name": "Ones", "config": {}}, "beta_initializer": {"class_name": "Zeros", "config": {}}, "gamma_constraint": null, "momentum": 0.99, "beta_regularizer": null, "moving_variance_initializer": {"class_name": "Ones", "config": {}}, "gamma_regularizer": null, "scale": true, "beta_constraint": null, "epsilon": 0.001, "name": "bn4d_branch2c", "axis": 3, "moving_mean_initializer": {"class_name": "Zeros", "config": {}}, "center": true, "trainable": false}}, {"inbound_nodes": [[["bn4d_branch2c", 0, 0, {}], ["activation_31", 0, 0, {}]]], "name": "add_11", "class_name": "Add", "config": {"name": "add_11", "trainable": false}}, {"inbound_nodes": [[["add_11", 0, 0, {}]]], "name": "activation_34", "class_name": "Activation", "config": {"activation": "relu", "name": "activation_34", "trainable": false}}, {"inbound_nodes": [[["activation_34", 0, 0, {}]]], "name": "res4e_branch2a", "class_name": "Conv2D", "config": {"bias_constraint": null, "kernel_size": [1, 1], "filters": 256, "kernel_initializer": {"class_name": "VarianceScaling", "config": {"seed": null, "scale": 1.0, "distribution": "uniform", "mode": "fan_avg"}}, "data_format": "channels_last", "activation": "linear", "strides": [1, 1], "trainable": false, "bias_initializer": {"class_name": "Zeros", "config": {}}, "activity_regularizer": null, "name": "res4e_branch2a", "dilation_rate": [1, 1], "kernel_constraint": null, "use_bias": true, "kernel_regularizer": null, "padding": "valid", "bias_regularizer": null}}, {"inbound_nodes": [[["res4e_branch2a", 0, 0, {}]]], "name": "bn4e_branch2a", "class_name": "BatchNormalization", "config": {"gamma_initializer": {"class_name": "Ones", "config": {}}, "beta_initializer": {"class_name": "Zeros", "config": {}}, "gamma_constraint": null, "momentum": 0.99, "beta_regularizer": null, "moving_variance_initializer": {"class_name": "Ones", "config": {}}, "gamma_regularizer": null, "scale": true, "beta_constraint": null, "epsilon": 0.001, "name": "bn4e_branch2a", "axis": 3, "moving_mean_initializer": {"class_name": "Zeros", "config": {}}, "center": true, "trainable": false}}, {"inbound_nodes": [[["bn4e_branch2a", 0, 0, {}]]], "name": "activation_35", "class_name": "Activation", "config": {"activation": "relu", "name": "activation_35", "trainable": false}}, {"inbound_nodes": [[["activation_35", 0, 0, {}]]], "name": "res4e_branch2b", "class_name": "Conv2D", "config": {"bias_constraint": null, "kernel_size": [3, 3], "filters": 256, "kernel_initializer": {"class_name": "VarianceScaling", "config": {"seed": null, "scale": 1.0, "distribution": "uniform", "mode": "fan_avg"}}, "data_format": "channels_last", "activation": "linear", "strides": [1, 1], "trainable": false, "bias_initializer": {"class_name": "Zeros", "config": {}}, "activity_regularizer": null, "name": "res4e_branch2b", "dilation_rate": [1, 1], "kernel_constraint": null, "use_bias": true, "kernel_regularizer": null, "padding": "same", "bias_regularizer": null}}, {"inbound_nodes": [[["res4e_branch2b", 0, 0, {}]]], "name": "bn4e_branch2b", "class_name": "BatchNormalization", "config": {"gamma_initializer": {"class_name": "Ones", "config": {}}, "beta_initializer": {"class_name": "Zeros", "config": {}}, "gamma_constraint": null, "momentum": 0.99, "beta_regularizer": null, "moving_variance_initializer": {"class_name": "Ones", "config": {}}, "gamma_regularizer": null, "scale": true, "beta_constraint": null, "epsilon": 0.001, "name": "bn4e_branch2b", "axis": 3, "moving_mean_initializer": {"class_name": "Zeros", "config": {}}, "center": true, "trainable": false}}, {"inbound_nodes": [[["bn4e_branch2b", 0, 0, {}]]], "name": "activation_36", "class_name": "Activation", "config": {"activation": "relu", "name": "activation_36", "trainable": false}}, {"inbound_nodes": [[["activation_36", 0, 0, {}]]], "name": "res4e_branch2c", "class_name": "Conv2D", "config": {"bias_constraint": null, "kernel_size": [1, 1], "filters": 1024, "kernel_initializer": {"class_name": "VarianceScaling", "config": {"seed": null, "scale": 1.0, "distribution": "uniform", "mode": "fan_avg"}}, "data_format": "channels_last", "activation": "linear", "strides": [1, 1], "trainable": false, "bias_initializer": {"class_name": "Zeros", "config": {}}, "activity_regularizer": null, "name": "res4e_branch2c", "dilation_rate": [1, 1], "kernel_constraint": null, "use_bias": true, "kernel_regularizer": null, "padding": "valid", "bias_regularizer": null}}, {"inbound_nodes": [[["res4e_branch2c", 0, 0, {}]]], "name": "bn4e_branch2c", "class_name": "BatchNormalization", "config": {"gamma_initializer": {"class_name": "Ones", "config": {}}, "beta_initializer": {"class_name": "Zeros", "config": {}}, "gamma_constraint": null, "momentum": 0.99, "beta_regularizer": null, "moving_variance_initializer": {"class_name": "Ones", "config": {}}, "gamma_regularizer": null, "scale": true, "beta_constraint": null, "epsilon": 0.001, "name": "bn4e_branch2c", "axis": 3, "moving_mean_initializer": {"class_name": "Zeros", "config": {}}, "center": true, "trainable": false}}, {"inbound_nodes": [[["bn4e_branch2c", 0, 0, {}], ["activation_34", 0, 0, {}]]], "name": "add_12", "class_name": "Add", "config": {"name": "add_12", "trainable": false}}, {"inbound_nodes": [[["add_12", 0, 0, {}]]], "name": "activation_37", "class_name": "Activation", "config": {"activation": "relu", "name": "activation_37", "trainable": false}}, {"inbound_nodes": [[["activation_37", 0, 0, {}]]], "name": "res4f_branch2a", "class_name": "Conv2D", "config": {"bias_constraint": null, "kernel_size": [1, 1], "filters": 256, "kernel_initializer": {"class_name": "VarianceScaling", "config": {"seed": null, "scale": 1.0, "distribution": "uniform", "mode": "fan_avg"}}, "data_format": "channels_last", "activation": "linear", "strides": [1, 1], "trainable": false, "bias_initializer": {"class_name": "Zeros", "config": {}}, "activity_regularizer": null, "name": "res4f_branch2a", "dilation_rate": [1, 1], "kernel_constraint": null, "use_bias": true, "kernel_regularizer": null, "padding": "valid", "bias_regularizer": null}}, {"inbound_nodes": [[["res4f_branch2a", 0, 0, {}]]], "name": "bn4f_branch2a", "class_name": "BatchNormalization", "config": {"gamma_initializer": {"class_name": "Ones", "config": {}}, "beta_initializer": {"class_name": "Zeros", "config": {}}, "gamma_constraint": null, "momentum": 0.99, "beta_regularizer": null, "moving_variance_initializer": {"class_name": "Ones", "config": {}}, "gamma_regularizer": null, "scale": true, "beta_constraint": null, "epsilon": 0.001, "name": "bn4f_branch2a", "axis": 3, "moving_mean_initializer": {"class_name": "Zeros", "config": {}}, "center": true, "trainable": false}}, {"inbound_nodes": [[["bn4f_branch2a", 0, 0, {}]]], "name": "activation_38", "class_name": "Activation", "config": {"activation": "relu", "name": "activation_38", "trainable": false}}, {"inbound_nodes": [[["activation_38", 0, 0, {}]]], "name": "res4f_branch2b", "class_name": "Conv2D", "config": {"bias_constraint": null, "kernel_size": [3, 3], "filters": 256, "kernel_initializer": {"class_name": "VarianceScaling", "config": {"seed": null, "scale": 1.0, "distribution": "uniform", "mode": "fan_avg"}}, "data_format": "channels_last", "activation": "linear", "strides": [1, 1], "trainable": false, "bias_initializer": {"class_name": "Zeros", "config": {}}, "activity_regularizer": null, "name": "res4f_branch2b", "dilation_rate": [1, 1], "kernel_constraint": null, "use_bias": true, "kernel_regularizer": null, "padding": "same", "bias_regularizer": null}}, {"inbound_nodes": [[["res4f_branch2b", 0, 0, {}]]], "name": "bn4f_branch2b", "class_name": "BatchNormalization", "config": {"gamma_initializer": {"class_name": "Ones", "config": {}}, "beta_initializer": {"class_name": "Zeros", "config": {}}, "gamma_constraint": null, "momentum": 0.99, "beta_regularizer": null, "moving_variance_initializer": {"class_name": "Ones", "config": {}}, "gamma_regularizer": null, "scale": true, "beta_constraint": null, "epsilon": 0.001, "name": "bn4f_branch2b", "axis": 3, "moving_mean_initializer": {"class_name": "Zeros", "config": {}}, "center": true, "trainable": false}}, {"inbound_nodes": [[["bn4f_branch2b", 0, 0, {}]]], "name": "activation_39", "class_name": "Activation", "config": {"activation": "relu", "name": "activation_39", "trainable": false}}, {"inbound_nodes": [[["activation_39", 0, 0, {}]]], "name": "res4f_branch2c", "class_name": "Conv2D", "config": {"bias_constraint": null, "kernel_size": [1, 1], "filters": 1024, "kernel_initializer": {"class_name": "VarianceScaling", "config": {"seed": null, "scale": 1.0, "distribution": "uniform", "mode": "fan_avg"}}, "data_format": "channels_last", "activation": "linear", "strides": [1, 1], "trainable": false, "bias_initializer": {"class_name": "Zeros", "config": {}}, "activity_regularizer": null, "name": "res4f_branch2c", "dilation_rate": [1, 1], "kernel_constraint": null, "use_bias": true, "kernel_regularizer": null, "padding": "valid", "bias_regularizer": null}}, {"inbound_nodes": [[["res4f_branch2c", 0, 0, {}]]], "name": "bn4f_branch2c", "class_name": "BatchNormalization", "config": {"gamma_initializer": {"class_name": "Ones", "config": {}}, "beta_initializer": {"class_name": "Zeros", "config": {}}, "gamma_constraint": null, "momentum": 0.99, "beta_regularizer": null, "moving_variance_initializer": {"class_name": "Ones", "config": {}}, "gamma_regularizer": null, "scale": true, "beta_constraint": null, "epsilon": 0.001, "name": "bn4f_branch2c", "axis": 3, "moving_mean_initializer": {"class_name": "Zeros", "config": {}}, "center": true, "trainable": false}}, {"inbound_nodes": [[["bn4f_branch2c", 0, 0, {}], ["activation_37", 0, 0, {}]]], "name": "add_13", "class_name": "Add", "config": {"name": "add_13", "trainable": false}}, {"inbound_nodes": [[["add_13", 0, 0, {}]]], "name": "activation_40", "class_name": "Activation", "config": {"activation": "relu", "name": "activation_40", "trainable": false}}, {"inbound_nodes": [[["activation_40", 0, 0, {}]]], "name": "res5a_branch2a", "class_name": "Conv2D", "config": {"bias_constraint": null, "kernel_size": [1, 1], "filters": 512, "kernel_initializer": {"class_name": "VarianceScaling", "config": {"seed": null, "scale": 1.0, "distribution": "uniform", "mode": "fan_avg"}}, "data_format": "channels_last", "activation": "linear", "strides": [2, 2], "trainable": false, "bias_initializer": {"class_name": "Zeros", "config": {}}, "activity_regularizer": null, "name": "res5a_branch2a", "dilation_rate": [1, 1], "kernel_constraint": null, "use_bias": true, "kernel_regularizer": null, "padding": "valid", "bias_regularizer": null}}, {"inbound_nodes": [[["res5a_branch2a", 0, 0, {}]]], "name": "bn5a_branch2a", "class_name": "BatchNormalization", "config": {"gamma_initializer": {"class_name": "Ones", "config": {}}, "beta_initializer": {"class_name": "Zeros", "config": {}}, "gamma_constraint": null, "momentum": 0.99, "beta_regularizer": null, "moving_variance_initializer": {"class_name": "Ones", "config": {}}, "gamma_regularizer": null, "scale": true, "beta_constraint": null, "epsilon": 0.001, "name": "bn5a_branch2a", "axis": 3, "moving_mean_initializer": {"class_name": "Zeros", "config": {}}, "center": true, "trainable": false}}, {"inbound_nodes": [[["bn5a_branch2a", 0, 0, {}]]], "name": "activation_41", "class_name": "Activation", "config": {"activation": "relu", "name": "activation_41", "trainable": false}}, {"inbound_nodes": [[["activation_41", 0, 0, {}]]], "name": "res5a_branch2b", "class_name": "Conv2D", "config": {"bias_constraint": null, "kernel_size": [3, 3], "filters": 512, "kernel_initializer": {"class_name": "VarianceScaling", "config": {"seed": null, "scale": 1.0, "distribution": "uniform", "mode": "fan_avg"}}, "data_format": "channels_last", "activation": "linear", "strides": [1, 1], "trainable": false, "bias_initializer": {"class_name": "Zeros", "config": {}}, "activity_regularizer": null, "name": "res5a_branch2b", "dilation_rate": [1, 1], "kernel_constraint": null, "use_bias": true, "kernel_regularizer": null, "padding": "same", "bias_regularizer": null}}, {"inbound_nodes": [[["res5a_branch2b", 0, 0, {}]]], "name": "bn5a_branch2b", "class_name": "BatchNormalization", "config": {"gamma_initializer": {"class_name": "Ones", "config": {}}, "beta_initializer": {"class_name": "Zeros", "config": {}}, "gamma_constraint": null, "momentum": 0.99, "beta_regularizer": null, "moving_variance_initializer": {"class_name": "Ones", "config": {}}, "gamma_regularizer": null, "scale": true, "beta_constraint": null, "epsilon": 0.001, "name": "bn5a_branch2b", "axis": 3, "moving_mean_initializer": {"class_name": "Zeros", "config": {}}, "center": true, "trainable": false}}, {"inbound_nodes": [[["bn5a_branch2b", 0, 0, {}]]], "name": "activation_42", "class_name": "Activation", "config": {"activation": "relu", "name": "activation_42", "trainable": false}}, {"inbound_nodes": [[["activation_42", 0, 0, {}]]], "name": "res5a_branch2c", "class_name": "Conv2D", "config": {"bias_constraint": null, "kernel_size": [1, 1], "filters": 2048, "kernel_initializer": {"class_name": "VarianceScaling", "config": {"seed": null, "scale": 1.0, "distribution": "uniform", "mode": "fan_avg"}}, "data_format": "channels_last", "activation": "linear", "strides": [1, 1], "trainable": false, "bias_initializer": {"class_name": "Zeros", "config": {}}, "activity_regularizer": null, "name": "res5a_branch2c", "dilation_rate": [1, 1], "kernel_constraint": null, "use_bias": true, "kernel_regularizer": null, "padding": "valid", "bias_regularizer": null}}, {"inbound_nodes": [[["activation_40", 0, 0, {}]]], "name": "res5a_branch1", "class_name": "Conv2D", "config": {"bias_constraint": null, "kernel_size": [1, 1], "filters": 2048, "kernel_initializer": {"class_name": "VarianceScaling", "config": {"seed": null, "scale": 1.0, "distribution": "uniform", "mode": "fan_avg"}}, "data_format": "channels_last", "activation": "linear", "strides": [2, 2], "trainable": false, "bias_initializer": {"class_name": "Zeros", "config": {}}, "activity_regularizer": null, "name": "res5a_branch1", "dilation_rate": [1, 1], "kernel_constraint": null, "use_bias": true, "kernel_regularizer": null, "padding": "valid", "bias_regularizer": null}}, {"inbound_nodes": [[["res5a_branch2c", 0, 0, {}]]], "name": "bn5a_branch2c", "class_name": "BatchNormalization", "config": {"gamma_initializer": {"class_name": "Ones", "config": {}}, "beta_initializer": {"class_name": "Zeros", "config": {}}, "gamma_constraint": null, "momentum": 0.99, "beta_regularizer": null, "moving_variance_initializer": {"class_name": "Ones", "config": {}}, "gamma_regularizer": null, "scale": true, "beta_constraint": null, "epsilon": 0.001, "name": "bn5a_branch2c", "axis": 3, "moving_mean_initializer": {"class_name": "Zeros", "config": {}}, "center": true, "trainable": false}}, {"inbound_nodes": [[["res5a_branch1", 0, 0, {}]]], "name": "bn5a_branch1", "class_name": "BatchNormalization", "config": {"gamma_initializer": {"class_name": "Ones", "config": {}}, "beta_initializer": {"class_name": "Zeros", "config": {}}, "gamma_constraint": null, "momentum": 0.99, "beta_regularizer": null, "moving_variance_initializer": {"class_name": "Ones", "config": {}}, "gamma_regularizer": null, "scale": true, "beta_constraint": null, "epsilon": 0.001, "name": "bn5a_branch1", "axis": 3, "moving_mean_initializer": {"class_name": "Zeros", "config": {}}, "center": true, "trainable": false}}, {"inbound_nodes": [[["bn5a_branch2c", 0, 0, {}], ["bn5a_branch1", 0, 0, {}]]], "name": "add_14", "class_name": "Add", "config": {"name": "add_14", "trainable": false}}, {"inbound_nodes": [[["add_14", 0, 0, {}]]], "name": "activation_43", "class_name": "Activation", "config": {"activation": "relu", "name": "activation_43", "trainable": false}}, {"inbound_nodes": [[["activation_43", 0, 0, {}]]], "name": "res5b_branch2a", "class_name": "Conv2D", "config": {"bias_constraint": null, "kernel_size": [1, 1], "filters": 512, "kernel_initializer": {"class_name": "VarianceScaling", "config": {"seed": null, "scale": 1.0, "distribution": "uniform", "mode": "fan_avg"}}, "data_format": "channels_last", "activation": "linear", "strides": [1, 1], "trainable": false, "bias_initializer": {"class_name": "Zeros", "config": {}}, "activity_regularizer": null, "name": "res5b_branch2a", "dilation_rate": [1, 1], "kernel_constraint": null, "use_bias": true, "kernel_regularizer": null, "padding": "valid", "bias_regularizer": null}}, {"inbound_nodes": [[["res5b_branch2a", 0, 0, {}]]], "name": "bn5b_branch2a", "class_name": "BatchNormalization", "config": {"gamma_initializer": {"class_name": "Ones", "config": {}}, "beta_initializer": {"class_name": "Zeros", "config": {}}, "gamma_constraint": null, "momentum": 0.99, "beta_regularizer": null, "moving_variance_initializer": {"class_name": "Ones", "config": {}}, "gamma_regularizer": null, "scale": true, "beta_constraint": null, "epsilon": 0.001, "name": "bn5b_branch2a", "axis": 3, "moving_mean_initializer": {"class_name": "Zeros", "config": {}}, "center": true, "trainable": false}}, {"inbound_nodes": [[["bn5b_branch2a", 0, 0, {}]]], "name": "activation_44", "class_name": "Activation", "config": {"activation": "relu", "name": "activation_44", "trainable": false}}, {"inbound_nodes": [[["activation_44", 0, 0, {}]]], "name": "res5b_branch2b", "class_name": "Conv2D", "config": {"bias_constraint": null, "kernel_size": [3, 3], "filters": 512, "kernel_initializer": {"class_name": "VarianceScaling", "config": {"seed": null, "scale": 1.0, "distribution": "uniform", "mode": "fan_avg"}}, "data_format": "channels_last", "activation": "linear", "strides": [1, 1], "trainable": false, "bias_initializer": {"class_name": "Zeros", "config": {}}, "activity_regularizer": null, "name": "res5b_branch2b", "dilation_rate": [1, 1], "kernel_constraint": null, "use_bias": true, "kernel_regularizer": null, "padding": "same", "bias_regularizer": null}}, {"inbound_nodes": [[["res5b_branch2b", 0, 0, {}]]], "name": "bn5b_branch2b", "class_name": "BatchNormalization", "config": {"gamma_initializer": {"class_name": "Ones", "config": {}}, "beta_initializer": {"class_name": "Zeros", "config": {}}, "gamma_constraint": null, "momentum": 0.99, "beta_regularizer": null, "moving_variance_initializer": {"class_name": "Ones", "config": {}}, "gamma_regularizer": null, "scale": true, "beta_constraint": null, "epsilon": 0.001, "name": "bn5b_branch2b", "axis": 3, "moving_mean_initializer": {"class_name": "Zeros", "config": {}}, "center": true, "trainable": false}}, {"inbound_nodes": [[["bn5b_branch2b", 0, 0, {}]]], "name": "activation_45", "class_name": "Activation", "config": {"activation": "relu", "name": "activation_45", "trainable": false}}, {"inbound_nodes": [[["activation_45", 0, 0, {}]]], "name": "res5b_branch2c", "class_name": "Conv2D", "config": {"bias_constraint": null, "kernel_size": [1, 1], "filters": 2048, "kernel_initializer": {"class_name": "VarianceScaling", "config": {"seed": null, "scale": 1.0, "distribution": "uniform", "mode": "fan_avg"}}, "data_format": "channels_last", "activation": "linear", "strides": [1, 1], "trainable": false, "bias_initializer": {"class_name": "Zeros", "config": {}}, "activity_regularizer": null, "name": "res5b_branch2c", "dilation_rate": [1, 1], "kernel_constraint": null, "use_bias": true, "kernel_regularizer": null, "padding": "valid", "bias_regularizer": null}}, {"inbound_nodes": [[["res5b_branch2c", 0, 0, {}]]], "name": "bn5b_branch2c", "class_name": "BatchNormalization", "config": {"gamma_initializer": {"class_name": "Ones", "config": {}}, "beta_initializer": {"class_name": "Zeros", "config": {}}, "gamma_constraint": null, "momentum": 0.99, "beta_regularizer": null, "moving_variance_initializer": {"class_name": "Ones", "config": {}}, "gamma_regularizer": null, "scale": true, "beta_constraint": null, "epsilon": 0.001, "name": "bn5b_branch2c", "axis": 3, "moving_mean_initializer": {"class_name": "Zeros", "config": {}}, "center": true, "trainable": false}}, {"inbound_nodes": [[["bn5b_branch2c", 0, 0, {}], ["activation_43", 0, 0, {}]]], "name": "add_15", "class_name": "Add", "config": {"name": "add_15", "trainable": false}}, {"inbound_nodes": [[["add_15", 0, 0, {}]]], "name": "activation_46", "class_name": "Activation", "config": {"activation": "relu", "name": "activation_46", "trainable": false}}, {"inbound_nodes": [[["activation_46", 0, 0, {}]]], "name": "res5c_branch2a", "class_name": "Conv2D", "config": {"bias_constraint": null, "kernel_size": [1, 1], "filters": 512, "kernel_initializer": {"class_name": "VarianceScaling", "config": {"seed": null, "scale": 1.0, "distribution": "uniform", "mode": "fan_avg"}}, "data_format": "channels_last", "activation": "linear", "strides": [1, 1], "trainable": false, "bias_initializer": {"class_name": "Zeros", "config": {}}, "activity_regularizer": null, "name": "res5c_branch2a", "dilation_rate": [1, 1], "kernel_constraint": null, "use_bias": true, "kernel_regularizer": null, "padding": "valid", "bias_regularizer": null}}, {"inbound_nodes": [[["res5c_branch2a", 0, 0, {}]]], "name": "bn5c_branch2a", "class_name": "BatchNormalization", "config": {"gamma_initializer": {"class_name": "Ones", "config": {}}, "beta_initializer": {"class_name": "Zeros", "config": {}}, "gamma_constraint": null, "momentum": 0.99, "beta_regularizer": null, "moving_variance_initializer": {"class_name": "Ones", "config": {}}, "gamma_regularizer": null, "scale": true, "beta_constraint": null, "epsilon": 0.001, "name": "bn5c_branch2a", "axis": 3, "moving_mean_initializer": {"class_name": "Zeros", "config": {}}, "center": true, "trainable": false}}, {"inbound_nodes": [[["bn5c_branch2a", 0, 0, {}]]], "name": "activation_47", "class_name": "Activation", "config": {"activation": "relu", "name": "activation_47", "trainable": false}}, {"inbound_nodes": [[["activation_47", 0, 0, {}]]], "name": "res5c_branch2b", "class_name": "Conv2D", "config": {"bias_constraint": null, "kernel_size": [3, 3], "filters": 512, "kernel_initializer": {"class_name": "VarianceScaling", "config": {"seed": null, "scale": 1.0, "distribution": "uniform", "mode": "fan_avg"}}, "data_format": "channels_last", "activation": "linear", "strides": [1, 1], "trainable": false, "bias_initializer": {"class_name": "Zeros", "config": {}}, "activity_regularizer": null, "name": "res5c_branch2b", "dilation_rate": [1, 1], "kernel_constraint": null, "use_bias": true, "kernel_regularizer": null, "padding": "same", "bias_regularizer": null}}, {"inbound_nodes": [[["res5c_branch2b", 0, 0, {}]]], "name": "bn5c_branch2b", "class_name": "BatchNormalization", "config": {"gamma_initializer": {"class_name": "Ones", "config": {}}, "beta_initializer": {"class_name": "Zeros", "config": {}}, "gamma_constraint": null, "momentum": 0.99, "beta_regularizer": null, "moving_variance_initializer": {"class_name": "Ones", "config": {}}, "gamma_regularizer": null, "scale": true, "beta_constraint": null, "epsilon": 0.001, "name": "bn5c_branch2b", "axis": 3, "moving_mean_initializer": {"class_name": "Zeros", "config": {}}, "center": true, "trainable": false}}, {"inbound_nodes": [[["bn5c_branch2b", 0, 0, {}]]], "name": "activation_48", "class_name": "Activation", "config": {"activation": "relu", "name": "activation_48", "trainable": false}}, {"inbound_nodes": [[["activation_48", 0, 0, {}]]], "name": "res5c_branch2c", "class_name": "Conv2D", "config": {"bias_constraint": null, "kernel_size": [1, 1], "filters": 2048, "kernel_initializer": {"class_name": "VarianceScaling", "config": {"seed": null, "scale": 1.0, "distribution": "uniform", "mode": "fan_avg"}}, "data_format": "channels_last", "activation": "linear", "strides": [1, 1], "trainable": false, "bias_initializer": {"class_name": "Zeros", "config": {}}, "activity_regularizer": null, "name": "res5c_branch2c", "dilation_rate": [1, 1], "kernel_constraint": null, "use_bias": true, "kernel_regularizer": null, "padding": "valid", "bias_regularizer": null}}, {"inbound_nodes": [[["res5c_branch2c", 0, 0, {}]]], "name": "bn5c_branch2c", "class_name": "BatchNormalization", "config": {"gamma_initializer": {"class_name": "Ones", "config": {}}, "beta_initializer": {"class_name": "Zeros", "config": {}}, "gamma_constraint": null, "momentum": 0.99, "beta_regularizer": null, "moving_variance_initializer": {"class_name": "Ones", "config": {}}, "gamma_regularizer": null, "scale": true, "beta_constraint": null, "epsilon": 0.001, "name": "bn5c_branch2c", "axis": 3, "moving_mean_initializer": {"class_name": "Zeros", "config": {}}, "center": true, "trainable": true}}, {"inbound_nodes": [[["bn5c_branch2c", 0, 0, {}], ["activation_46", 0, 0, {}]]], "name": "add_16", "class_name": "Add", "config": {"name": "add_16", "trainable": true}}, {"inbound_nodes": [[["add_16", 0, 0, {}]]], "name": "activation_49", "class_name": "Activation", "config": {"activation": "relu", "name": "activation_49", "trainable": true}}, {"inbound_nodes": [[["activation_49", 0, 0, {}]]], "name": "avg_pool", "class_name": "AveragePooling2D", "config": {"name": "avg_pool", "pool_size": [7, 7], "data_format": "channels_last", "strides": [7, 7], "padding": "valid", "trainable": true}}, {"inbound_nodes": [[["avg_pool", 0, 0, {}]]], "name": "global_average_pooling2d_1", "class_name": "GlobalAveragePooling2D", "config": {"data_format": "channels_last", "name": "global_average_pooling2d_1", "trainable": true}}, {"inbound_nodes": [[["global_average_pooling2d_1", 0, 0, {}]]], "name": "fc-1", "class_name": "Dense", "config": {"units": 512, "bias_constraint": null, "trainable": true, "name": "fc-1", "activation": "relu", "bias_initializer": {"class_name": "Zeros", "config": {}}, "activity_regularizer": null, "kernel_initializer": {"class_name": "VarianceScaling", "config": {"seed": null, "scale": 1.0, "distribution": "uniform", "mode": "fan_avg"}}, "kernel_constraint": null, "use_bias": true, "kernel_regularizer": null, "bias_regularizer": null}}, {"inbound_nodes": [[["fc-1", 0, 0, {}]]], "name": "dropout_1", "class_name": "Dropout", "config": {"seed": null, "noise_shape": null, "rate": 0.5, "name": "dropout_1", "trainable": true}}, {"inbound_nodes": [[["dropout_1", 0, 0, {}]]], "name": "fc-2", "class_name": "Dense", "config": {"units": 256, "bias_constraint": null, "trainable": true, "name": "fc-2", "activation": "relu", "bias_initializer": {"class_name": "Zeros", "config": {}}, "activity_regularizer": null, "kernel_initializer": {"class_name": "VarianceScaling", "config": {"seed": null, "scale": 1.0, "distribution": "uniform", "mode": "fan_avg"}}, "kernel_constraint": null, "use_bias": true, "kernel_regularizer": null, "bias_regularizer": null}}, {"inbound_nodes": [[["fc-2", 0, 0, {}]]], "name": "dropout_2", "class_name": "Dropout", "config": {"seed": null, "noise_shape": null, "rate": 0.5, "name": "dropout_2", "trainable": true}}, {"inbound_nodes": [[["dropout_2", 0, 0, {}]]], "name": "output_layer", "class_name": "Dense", "config": {"units": 5, "bias_constraint": null, "trainable": true, "name": "output_layer", "activation": "softmax", "bias_initializer": {"class_name": "Zeros", "config": {}}, "activity_regularizer": null, "kernel_initializer": {"class_name": "VarianceScaling", "config": {"seed": null, "scale": 1.0, "distribution": "uniform", "mode": "fan_avg"}}, "kernel_constraint": null, "use_bias": true, "kernel_regularizer": null, "bias_regularizer": null}}], "output_layers": [["output_layer", 0, 0]], "name": "model_1"}}